data/model2_5l_30h_20000e.pt (torch, 15395 bytes, 10 tensors)

layers.0.weight f4 [30, 3]
000000 4d ff 03 3e 2b e1 61 3e 03 47 bc be 22 a9 f4 bd
       0.12890358 0.22058551 -0.36772928 -0.11946322
000010 83 bf 0a be c8 79 89 3e 77 e6 32 be 44 7a 30 3f
       -0.13549618 0.26850724 -0.17470728 0.6893656
000020 9b f8 83 3b 2e 92 73 be 62 42 8a be af fa 9d be
       0.004027439 -0.23786232 -0.2700377 -0.3085532
000030 bd 33 0d bf d6 c5 c3 be 84 b5 73 be 74 28 11 3e
       -0.5515707 -0.38236874 -0.23799711 0.14175588
000040 c2 42 5d 3d e6 ac e0 3d 73 bd 37 be 68 f4 d9 be
       0.054018743 0.10970478 -0.17943363 -0.4256928
000050 42 08 fb 3d 86 3b 0f 3e b2 20 29 be c8 b9 03 3e
       0.122574344 0.1398755 -0.16516379 0.12863839
000060 82 6d d3 bb dd d8 63 be fc 13 bd 3e 79 1c 09 bf
       -0.0064522633 -0.22250696 0.3692931 -0.5355907
000070 f0 17 ba be 48 ac 15 be db ad 4a be 81 43 ca 3e
       -0.36346388 -0.14616501 -0.19792883 0.39504626
000080 e1 7b 97 be 63 3e 4c be 1b 4f bc be 9b d8 f7 be
       -0.295867 -0.19945674 -0.36779103 -0.48407444
000090 da 53 10 be 05 85 9c 3e fb e6 98 3e 10 e0 a7 3e
       -0.14094487 0.30570236 0.29863724 0.32788134
0000a0 de d9 d2 3d 38 0e c9 be 44 d9 1a 3e 0a 9b d9 be
       0.10295461 -0.3926866 0.15121943 -0.42501098
0000b0 2b 7d d9 be 00 6a 07 bf c7 c0 9d 3e 33 bc c9 3e
       -0.42478308 -0.5289612 0.3081114 0.39401397
0000c0 65 55 a2 be 95 0e 84 3d ed 36 b4 3e 09 9a 99 3e
       -0.31705776 0.06448094 0.35198155 0.30000332
0000d0 a3 ec c3 3e 7b c3 4e 3d 97 38 cd 3e cd d3 ef be
       0.38266477 0.050479393 0.40082237 -0.4684128
0000e0 e4 d8 dc 3b b7 eb ce be 97 0a d6 be de 1a 8b be
       0.0067397226 -0.4041421 -0.41804954 -0.27168936
0000f0 e3 c1 bc 3e 13 8f 41 bc 4d bb b1 be 89 99 62 3e
       0.36866674 -0.011813897 -0.34713212 0.22128882
000100 9c 3a d9 3e b0 55 c8 3b 87 46 33 3b 5d b1 9f 3d
       0.42427528 0.0061137304 0.002735527 0.07797501
000110 7d 19 86 3e 1e 24 b2 3e 9c 9d 18 bd 5c 31 97 be
       0.2619132 0.3479318 -0.037259683 -0.29529846
000120 e2 a1 ef 3d 6d 23 02 3f 99 64 55 3e cc a4 f1 3e
       0.117007986 0.50835305 0.20839156 0.47196043
000130 e2 70 88 3e 42 ab c6 be 50 c8 19 3e 74 0a ae be
       0.26648623 -0.38802534 0.1501782 -0.3399235
000140 b1 1a ed be 4c 70 0c 3f 4d 4a c2 3e 19 3c e3 be
       -0.46309426 0.5485885 0.37947312 -0.44381788
000150 ba 64 52 3e 9b 65 d7 bc c0 3f 8d bc 80 50 87 be
       0.20546237 -0.026293566 -0.017242312 -0.26428604
000160 28 5a 63 3e 3f 16 af be
       0.2220236 -0.3419666

layers.0.bias f4 [30]
000000 4e 09 7f 3e 72 ca 0b 3f fc ef c2 3d 80 b1 03 3e
       0.24905893 0.5460578 0.0951843 0.1286068
000010 d6 48 12 bf 25 86 cf be b4 9f 93 3e 5a 77 03 3f
       -0.5714239 -0.40532032 0.2883278 0.5135399
000020 04 6a 5a be d3 36 aa be fc 0d 06 3f e0 ca c6 3e
       -0.21329504 -0.33244953 0.5236509 0.38826656
000030 0f 24 04 3e fb b6 bc be 86 be 13 bf ea f1 27 3f
       0.1290438 -0.36858353 -0.5771259 0.65603507
000040 8b 34 fc be c1 c9 0b bf 39 32 18 bc 97 17 e0 3d
       -0.49258837 -0.5460473 -0.009289318 0.109419994
000050 c2 b3 7d be 6b 90 50 3f 2c 0d 18 be 2c ee bc 3f
       -0.24775603 0.81470364 -0.14848775 1.4760184
000060 21 4b ed 3e 03 18 b1 bf 93 01 21 be 43 7d 5d bf
       0.4634638 -1.3835453 -0.15723257 -0.8651926
000070 be 1c 8c 3e 11 38 0c 3e
       0.2736568 0.13693263

layers.1.weight f4 [30, 30]
000000 23 d0 a2 3c f7 23 4b bc 2c d5 a7 3d ab 5e 19 3e
       0.019874638 -0.012398711 0.08194956 0.14977519
000010 59 56 33 be 33 f8 00 be 43 73 5f 3c d0 48 2a 3e
       -0.17513408 -0.1259468 0.01363832 0.16629338
000020 27 de 70 bd b0 3b 19 be ec 3a 26 bd 6d fb 9a 3d
       -0.05880561 -0.14964175 -0.040583536 0.07567487
000030 c6 aa 4a be 0b 03 0e 3b 92 24 c1 3d b6 15 ca bb
       -0.19791707 0.0021669294 0.09430803 -0.006167139
000040 a9 f7 26 be ac 1e 88 bd cd 3c 26 3e 0f bb 12 3e
       -0.16305412 -0.06646475 0.16234131 0.1432917
000050 9f d4 c5 3d 91 81 bd 3e 40 e6 dc 3d ff 89 9d be
       0.09659695 0.37012914 0.10786104 -0.30769345
000060 60 32 17 3d 94 f1 1b 3d 6d b5 d0 3d 65 c1 59 be
       0.036913276 0.038072184 0.10190854 -0.2126518
000070 bc 4d 5a 3d 3d 44 0f be 8f f6 2e be d9 ca 1d be
       0.05329679 -0.13990875 -0.17086242 -0.15409411
000080 a8 af 17 bd 38 0e cd 3d f3 26 ca 3d 69 4e 34 be
       -0.037032753 0.10012478 0.0987071 -0.17608036
000090 53 3d e9 3d 78 4b 12 be 00 19 1e bd 6e 9c 97 bd
       0.1138865 -0.14286602 -0.03859806 -0.074028835
0000a0 d4 0a 10 bd 6b d4 12 bd d2 c3 27 be c4 6c 21 be
       -0.035166577 -0.03584711 -0.16383293 -0.15764147
0000b0 c6 09 ea bc 64 bc 1a 3b da db a9 bd 32 da 8c 3d
       -0.028569113 0.0023610825 -0.082938865 0.06877555
0000c0 73 45 28 be d0 df 49 bc a7 69 24 3e 04 84 98 bd
       -0.16432743 -0.012321427 0.16055928 -0.07447055
0000d0 62 d2 28 3e e3 69 87 3d 70 b8 28 be b6 92 ec 3d
       0.16486505 0.06611993 -0.16476607 0.115514204
0000e0 e8 96 ac bc b6 ea a6 bd fd 7f 15 3e 06 14 17 be
       -0.021068051 -0.08150236 0.14599605 -0.14753732
0000f0 14 99 2e bd df 92 30 be 70 9f 01 be 0b 4f b1 3d
       -0.042626455 -0.17243527 -0.12658477 0.086576544
000100 ac aa b3 3d 0e 75 0c bc 93 b2 00 be 8e d7 4e 3c
       0.087727875 -0.00857283 -0.1256812 0.012624634
000110 52 45 fb 3c 1c 9a ca 3d ec 95 f7 3c 37 6c aa 3d
       0.030672703 0.09892675 0.030222856 0.083214216
000120 70 b0 56 3d 3b dd f0 3d cc 57 11 bd c2 21 cc be
       0.052414358 0.11760946 -0.03548412 -0.39869505
000130 79 51 cc be 6f 98 b0 3d f2 74 52 bc 3b f3 18 3d
       -0.3990591 0.086228244 -0.012845265 0.037341338
000140 44 98 17 be 76 04 40 3e 7b 42 3e bc 06 56 b4 3e
       -0.14804178 0.18751702 -0.01161253 0.3522188
000150 8b 23 c5 bd 5f 97 d6 3e 7e 9c ca bb eb aa 91 bd
       -0.0962592 0.41912362 -0.006183206 -0.07112678
000160 7d 2e aa 3d 4e 63 bd 3c 96 93 91 bd f1 3f 01 be
       0.08309648 0.023118641 -0.07108228 -0.12622048
000170 69 7e 65 bd 91 8a 9e bc 26 25 a8 ba b2 17 45 bd
       -0.056028757 -0.019353183 -0.0012828454 -0.0481183
000180 f7 09 97 bc 69 35 1d bc f1 62 c8 3d 37 b9 17 be
       -0.018437369 -0.0095952535 0.097844966 -0.14816748
000190 43 80 3b bd 0a e3 16 3e 0e a1 8e bd 0b 06 2b 3e
       -0.045776617 0.14735046 -0.069643125 0.16701524
0001a0 80 7a 6a 3d 2b a3 44 3e 72 d5 8d be 83 62 93 3c
       0.05724573 0.19202869 -0.27701908 0.01799131
0001b0 ca 43 8a 3d a9 7a 9d bd 7f 42 a4 bc ab bc 7e 3e
       0.06751211 -0.07689411 -0.020051239 0.24876659
0001c0 06 d2 2b bd e3 c2 54 bd cc 38 e3 3c ed f9 97 3e
       -0.04194834 -0.05194367 0.027737044 0.29682866
0001d0 d5 26 a0 3e 0b 2c 92 be d4 0d 82 3c b4 f3 5b 3d
       0.31279626 -0.28549227 0.015875734 0.05369921
0001e0 47 ef 9f 3d e0 21 74 bd 1c 31 d4 3c 87 b8 c2 3c
       0.078093104 -0.05960262 0.025902323 0.02376963
0001f0 a9 7f c0 3d a5 27 98 bd 67 c1 21 be 14 d0 83 be
       0.09399349 -0.074294366 -0.15796433 -0.2574469
000200 5e cb 11 be 02 49 fe bc 64 9d 7b bc 04 13 90 3d
       -0.14237735 -0.031040672 -0.015357349 0.07034877
000210 45 19 8c 3e db 98 1c bd 30 ab 33 be 8c cd 40 3e
       0.2736303 -0.03823171 -0.17545772 0.1882841
000220 c7 85 92 be ac e9 9d bd c0 6f b5 be a2 66 07 be
       -0.2861769 -0.07710585 -0.3543682 -0.13222745
000230 b3 26 e7 3c a6 35 d8 3e e0 45 f7 3c 84 1c 3e 3e
       0.028216695 0.4222843 0.030184686 0.18565565
000240 92 18 b9 3e 54 8f f5 bd 30 d7 02 be 81 8d b2 3d
       0.36151558 -0.11990228 -0.127774 0.08718396
000250 fb d3 21 3e d5 53 4b 3d 29 ea b0 bd 7e c4 af bd
       0.1580352 0.049640495 -0.086384125 -0.085824
000260 d6 c2 30 be dc 90 21 3d 34 d5 d1 bd 77 af 26 be
       -0.17261824 0.03944479 -0.102457434 -0.16277872
000270 f2 ef 23 3e 95 d2 f2 bd ae 25 aa bc 28 3f 56 3d
       0.160095 -0.118565716 -0.02076992 0.052306324
000280 67 98 be 3b 37 99 fb bd dd 1e 17 be f2 04 15 3e
       0.0058165076 -0.12285083 -0.14757867 0.14552668
000290 a1 8c f3 3c 6f 1a 1b 3e 6f b3 7a bd 8c 46 5c 3d
       0.029730143 0.15146802 -0.061206277 0.053778216
0002a0 70 02 2b bd be 06 05 bc 98 ba e3 bd 2b ea 7c 3d
       -0.04175037 -0.008119283 -0.11119574 0.061746757
0002b0 b9 6f 6c 3d 19 d3 76 bb ec 2f 28 bd 8f 7d e6 bd
       0.057723735 -0.0037662445 -0.041061327 -0.11254417
0002c0 d6 49 01 3e ae 2c 0b be c6 2d 99 3d 5a 75 7b bd
       0.12625822 -0.13591263 0.07479434 -0.061391212
0002d0 20 c0 7d bd a5 da bd bd 8a 15 84 bd d2 6f b0 3d
       -0.061950803 -0.09270219 -0.06449421 0.08615078
0002e0 b9 db 12 3d c2 4c 01 be 2d 11 05 be a7 8d c5 bc
       0.035854075 -0.12626937 -0.12994833 -0.024115397
0002f0 4d e1 d0 3c 2a 45 bc bc 63 e3 86 bd 41 f3 3d 3c
       0.025498057 -0.022982199 -0.06586339 0.011593641
000300 21 31 81 3d 0a b6 64 bb 90 fc 02 3e a2 35 5e 3e
       0.06308199 -0.0034898543 0.12791657 0.21700147
000310 50 36 c1 bd 28 11 10 3e 5e 81 9d bc 0d e0 9f 3c
       -0.094341874 0.14069045 -0.019226726 0.019516015
000320 a1 34 c0 bb c1 98 01 3e c9 53 32 be 2c 00 19 3d
       -0.005865649 0.12655927 -0.17414774 0.03735368
000330 0a 91 c1 3d f4 c3 bf 3e 44 43 2b 3e 13 38 12 be
       0.09451492 0.37454188 0.16724879 -0.14279203
000340 63 0c d2 3d 8a e6 b5 bd bd a8 9a bd 4f ac 24 be
       0.10256269 -0.088818625 -0.075517155 -0.16081356
000350 8d bd 5d 3e 60 85 d0 3d f3 3a 01 be 7c 24 82 3d
       0.21654339 0.10181689 -0.12620144 0.06354615
000360 c3 e5 73 3d cb 10 6b 3e ed 37 a5 3d 48 d8 10 3e
       0.05954529 0.22955625 0.080673076 0.14145005
000370 01 50 28 bc ae 51 4a bd 84 1a 11 3e b6 7e d8 3d
       -0.010272981 -0.049394302 0.14170271 0.10571043
000380 d9 e9 13 be 7c 60 4b 3e 58 93 a6 3d fa 1f 0b 3e
       -0.14444675 0.19861025 0.08133572 0.13586417
000390 ca 61 35 bd 07 68 43 3d e5 03 8f 3c ae 0e 08 3e
       -0.044282712 0.04770663 0.017457912 0.1328685
0003a0 44 6f d5 bd 16 45 5b 3e 48 85 4e 3c 3e 30 80 3a
       -0.10421613 0.21413073 0.012605019 0.0009780002
0003b0 05 fb f4 bd b3 eb a0 3d d7 c5 bb bd 56 e6 28 3d
       -0.11961941 0.07857456 -0.09168594 0.04123529
0003c0 82 06 fc bd 75 0f 32 be a1 09 3a bd 2c 17 01 3e
       -0.12305929 -0.17388709 -0.04541934 0.12606496
0003d0 b8 4c ca 3d c1 40 6f 3e 4d 1e 8c 3d 75 d0 64 be
       0.09877914 0.23364545 0.06841717 -0.22345145
0003e0 b2 c2 07 be ae ab f1 bc ab 6f e4 bd 6f 74 7e 3d
       -0.13257864 -0.029500809 -0.111541115 0.06212276
0003f0 f7 9b 85 3d 55 b1 ac 3d fe 7e f7 bd c9 2e 1a be
       0.065238886 0.08432261 -0.12084769 -0.1505691

layers.1.bias f4 [30]
000000 42 2c db 3e f8 99 e9 bd 7d 0f de bc 11 1f 3e 3e
       0.42807204 -0.1140632 -0.027106995 0.18566538
000010 e4 75 51 3e 64 94 30 be 41 98 c9 bd 06 91 08 3d
       0.20455128 -0.17244107 -0.09843493 0.03334143
000020 d8 ff 16 bf 3b a8 02 3e 08 7e 47 3e 9d dc 6a 3e
       -0.58984137 0.12759487 0.19481671 0.2293572
000030 0b 59 39 be 38 de 3e 3e a1 2f 71 3d cf 3e 8a be
       -0.18100373 0.18639457 0.058883313 -0.27001044
000040 11 59 17 be 07 ba 32 bd 21 b2 b3 bd 6b 91 f4 3d
       -0.1478007 -0.04363444 -0.0877421 0.11941799
000050 20 ae ec bd d3 8c d5 3e 9d 79 4c bd f8 24 e2 3e
       -0.11556649 0.41709003 -0.049920667 0.4416883
000060 52 db e7 3e 1b d8 a8 3e 2f 82 09 bd cf 18 9c 3d
       0.45284516 0.32977375 -0.03357142 0.07621919
000070 b5 da dd bc c7 0d 4f be
       -0.027081827 -0.202201

layers.2.weight f4 [30, 30]
000000 57 b1 15 3c 1d 42 a5 bd eb 28 94 3e 72 cb ac bc
       0.009136519 -0.08069251 0.28937468 -0.021093104
000010 e7 b6 b2 3d d1 3d 87 bc 2a 84 44 3e a7 f2 86 bd
       0.08726292 -0.016508969 0.19191042 -0.06589251
000020 b9 3a c7 3e 9c 6c 6f bd 16 c1 f2 bd f0 65 a6 3d
       0.3891199 -0.058453187 -0.118532345 0.08124912
000030 dc 8d 1e be 70 21 ea 3e fd bc 2c bd 71 ab 93 3c
       -0.15483803 0.45728636 -0.04217242 0.018026086
000040 a2 04 90 bc b3 08 30 be 82 46 28 3e 8c 14 c1 3d
       -0.017580334 -0.17190818 0.16433147 0.09427747
000050 9e 0e 65 3d 02 9d b5 bc 20 c9 b9 3d 35 8a be 3d
       0.055922143 -0.022169594 0.09071565 0.09303705
000060 0f 88 5d 3e 37 fa 29 be c4 b5 6e bd 47 b6 30 bd
       0.21633933 -0.16599356 -0.058278814 -0.043142583
000070 54 d9 05 3e 57 41 07 3e cf 07 a9 3d 3d 0a 09 be
       0.13071185 0.13208519 0.082534425 -0.13382812
000080 f1 b2 a2 3d ab 1b c4 3d cf 14 97 3d 48 09 04 3e
       0.079442866 0.0957559 0.07377016 0.12894166
000090 83 9c 0d 3e e0 24 e6 bc 03 de fd bd 4a a0 ed bd
       0.13829236 -0.028093755 -0.12395861 -0.11602838
0000a0 ac 77 2a bd 59 a9 6a 3d e9 e1 1b bd 37 25 d8 bc
       -0.041618034 0.05729041 -0.03805724 -0.026384933
0000b0 4c 1b e7 bc c5 93 1c be 33 98 64 3b 23 90 2b be
       -0.028211258 -0.15290745 0.0034880757 -0.16754203
0000c0 a0 33 02 bd ea f7 ed 3a 03 d1 81 bc 07 15 84 bd
       -0.031787515 0.0018155549 -0.015846735 -0.06449323
0000d0 47 18 13 3e 0c 05 02 3e 13 b6 30 be 35 23 2a 3e
       0.1436473 0.12697238 -0.17256956 0.16614993
0000e0 fa 16 2d be dc 28 1f be 57 71 e6 3b c8 27 9c 3d
       -0.16903296 -0.1554293 0.007032554 0.07624775
0000f0 60 f8 61 3d da 51 34 be d2 0b 8c be 07 20 19 3e
       0.05516851 -0.17609349 -0.27352768 0.14953624
000100 f2 fd 3d be 0b 9f 35 be 28 ff 6f 3d 65 ba 3f be
       -0.18553904 -0.17736451 0.058592945 -0.18723448
000110 53 09 18 be 97 8c a0 bd 06 d9 65 bc 28 59 e0 bd
       -0.14847307 -0.078393154 -0.014028793 -0.10954505
000120 60 e7 8a be d3 41 1c be e4 18 0b be 7d 18 ad bc
       -0.2712965 -0.15259485 -0.13583714 -0.021129841
000130 9a 6f f1 bd d7 9a 01 be f2 b6 cf 3d e8 e5 0f be
       -0.117888644 -0.12656723 0.10142316 -0.14052546
000140 7f ae 0d be c1 95 81 3e 5f d1 0b 3d b6 9c cc 3d
       -0.13836096 0.25309566 0.03413522 0.09990828
000150 ab ab 39 3e 7f 2a 2c 3c 45 e9 26 be 0c 25 72 3a
       0.18131892 0.010508179 -0.16299923 0.0009237088
000160 d5 29 03 bd 57 79 d2 be 7f fb 54 bc 98 66 a5 3d
       -0.032022316 -0.411082 -0.0129994145 0.08076209
000170 2e e8 cd bd fa ff bd bd 18 b3 b4 3d 71 23 33 be
       -0.100540504 -0.09277339 0.08823222 -0.17493989
000180 80 33 31 3d 21 bd 10 be 7c db b9 3d db da 1f be
       0.043262005 -0.14134647 0.090750664 -0.1561083
000190 01 e2 e5 3d 86 fa 30 be 23 26 1d be 5f 54 30 3b
       0.112247474 -0.17283067 -0.15346579 0.0026905758
0001a0 b3 51 13 3e b7 1b 20 be 7c c9 a6 bd 3e 33 24 3e
       0.14386635 -0.15635572 -0.08143899 0.16035172
0001b0 f7 d0 fa bc ec e7 9a 3d ef d9 33 be 23 2d 6b bd
       -0.03061722 0.07563767 -0.17563604 -0.057416093
0001c0 6f e2 bd bd 86 9d 1d 3e 39 30 9b 3d cf 6a 08 be
       -0.092717044 0.15392122 0.07577557 -0.13321994
0001d0 87 23 f1 3c 6a 85 09 bb 0f a1 99 bd 49 88 d5 bd
       0.029435886 -0.0020984062 -0.075014226 -0.10426385
0001e0 86 b8 d8 bc 18 5d 13 3e 86 74 f7 3b 4a ea 23 3e
       -0.026455175 0.14390981 0.0075517325 0.16007343
0001f0 a1 df 35 bd 77 26 50 3b 43 0b 87 3e 17 a8 d5 bd
       -0.044402722 0.0031761208 0.2637578 -0.10432451
000200 69 53 2c 3c a9 71 db bd 77 98 12 3d 29 9d 89 bd
       0.010517933 -0.10715038 0.035789933 -0.06719429
000210 2d bc 3e 3e bf 5d 79 be e8 ff 1e be dd d9 5f be
       0.18626471 -0.24352168 -0.15527308 -0.21860452
000220 de cb 24 bd 97 b0 11 3e 0f c3 c2 3e c6 c1 f2 bd
       -0.040233485 0.1422752 0.38039443 -0.118533656
000230 e4 3b ff ba 9c 7e c8 3d 5d 0b a4 3d 98 4e a8 3e
       -0.0019472805 0.09789774 0.0800998 0.32872462
000240 d0 c2 61 3d 3b a4 b1 3b e8 38 45 3e 48 38 80 bd
       0.05511743 0.005421189 0.1925999 -0.06260735
000250 e7 69 52 bd ae 72 01 bd fc b8 ba 3d 2e 27 28 3e
       -0.051370528 -0.031603508 0.09117314 0.16421196
000260 46 51 f7 bd 6d af 1a be 9a 95 c2 be a5 99 9a bd
       -0.120760486 -0.15105982 -0.38004762 -0.075488366
000270 76 91 aa bd 0e 19 1d 3e 83 26 66 bc 51 5e ea bd
       -0.08328526 0.15341589 -0.014047268 -0.11443771
000280 f4 fc c6 bd e5 19 3f bc b0 df 42 3e 9d 08 d6 be
       -0.09716216 -0.011663889 0.19030643 -0.41803446
000290 68 a9 6c be 43 5a 20 be 5c 8e 9b 3d ea e1 b8 3d
       -0.23111498 -0.15659432 0.07595512 0.09027465
0002a0 22 56 91 3d 99 d1 47 3d 14 6f e6 3d fd 17 17 3d
       0.07096507 0.048783872 0.11251655 0.03688811
0002b0 cb 39 1e bd 31 49 19 3d 66 cc dc 3d c2 22 94 3c
       -0.038629334 0.037423316 0.107811734 0.01808298
0002c0 a5 20 da 3d 96 9c bd 3d c2 a9 77 3e 1f 94 85 be
       0.10650758 0.09258382 0.24185851 -0.2608957
0002d0 63 db 23 3e 14 a0 37 3e a7 6a 09 3e e2 df 23 3d
       0.16001658 0.17932159 0.13419591 0.040008433
0002e0 eb fb a1 bd 12 77 12 be 8d 72 a9 bc e2 58 e5 3b
       -0.07909378 -0.14303234 -0.020684505 0.006999121
0002f0 80 aa 4a 3e 2b 3e 22 be a4 cc 22 be f6 79 1e bd
       0.19791603 -0.15844028 -0.15898377 -0.03869053
000300 54 2e d0 3d 28 1a 17 3d c9 be ac bd db f5 b9 bc
       0.101650864 0.03689018 -0.08434827 -0.02270024
000310 f0 ab 0a be 7c b5 a8 bd 91 db 3d 3b 06 5e 15 bd
       -0.13542151 -0.082377404 0.0028969983 -0.03646662
000320 21 eb 8e 3d 33 53 b0 3e d9 0f ab 3d e0 bb d5 be
       0.06978441 0.34438476 0.08352632 -0.417449
000330 13 f5 65 3e c2 bd 0a bd 40 43 35 3e 75 6b 38 be
       0.2245677 -0.033872373 0.17701435 -0.18009742
000340 5e b1 4f 3d 65 60 2f bd 78 e6 fa bd ed 7b 9c 3c
       0.05070626 -0.04281654 -0.1225099 0.019102061
000350 7f a2 4e 3d 97 46 5b 3e 8a 48 4b 3d 25 39 a5 3d
       0.050447937 0.21413647 0.049629726 0.0806754
000360 d8 9c 77 3e 83 a2 f6 3d d3 8b d6 3e 23 1f 1e 3e
       0.24180925 0.120427154 0.41903552 0.15441565
000370 ac b2 ab b9 41 50 01 bd 19 ac 83 be c3 eb dc bb
       -0.00032748783 -0.031570677 -0.25717238 -0.006741972
000380 62 4b c5 3d b6 b3 55 3d c1 65 28 3e 7c 5c b0 3d
       0.09633519 0.05217334 0.16445066 0.0861139
000390 13 ab 8b 3e 04 f5 0e 3e 80 40 1b be 9d 92 a2 bb
       0.27278957 0.13960654 -0.15161324 -0.0049613253
0003a0 97 a5 db 3c 31 a3 0b be d3 a6 2f bd f8 ec 8e 3d
       0.026812358 -0.13636471 -0.042883705 0.06978792
0003b0 be 5d 87 3d 0c 6f 1c 3e 3e 48 e3 3c a7 30 e3 3d
       0.06609677 0.15276736 0.027744409 0.11093264
0003c0 58 00 ed 3d 4f 32 fd 3d b8 da 95 bd 5f 5e e0 bd
       0.11572331 0.12363111 -0.07317108 -0.109555
0003d0 67 99 3d be 31 20 1c be cc ad 10 ba 68 13 7b be
       -0.1851555 -0.15246655 -0.0005519062 -0.24519122
0003e0 ce 97 ec 3d 76 92 15 be 0a 91 b4 bc 3b fd 88 bd
       0.11552392 -0.14606652 -0.022041816 -0.06688925
0003f0 47 52 93 bc 81 cd 01 3e ff 78 01 3e b0 1d b4 3d
       -0.017983569 0.1267605 0.12643813 0.08794725

layers.2.bias f4 [30]
000000 cb f8 6e bd ce 99 09 3e b1 fe 8c 3e 2f c4 67 bd
       -0.058342736 0.13437578 0.27538064 -0.05658358
000010 d7 ea e6 bc 63 86 27 be c2 d1 dd 3e 65 4a be bd
       -0.028188152 -0.16359858 0.43324095 -0.092915334
000020 8f 9e a2 bd 35 e3 ed 3e 22 0f 88 3e b5 cf e5 3d
       -0.07940399 0.46462408 0.26574045 0.112212576
000030 52 c9 03 be 6b 34 23 3e fa 49 0f be e0 ed 82 3e
       -0.12869766 0.15937965 -0.13993064 0.2557211
000040 60 ce 0e 3f 42 36 cf bd 53 85 b2 bb 75 6a a4 3d
       0.55783653 -0.10117771 -0.0054480224 0.080281176
000050 69 6f 59 be 8b 7f 91 bd 04 61 7e 3e 55 71 05 be
       -0.21233906 -0.07104405 0.24841696 -0.13031514
000060 d4 66 b0 ba 43 89 36 be dd 1f 79 3e 53 b5 d1 3d
       -0.001345838 -0.17825799 0.24328561 0.10239663
000070 98 8e 97 3e 90 d8 f8 bd
       0.29600978 -0.12150681

layers.3.weight f4 [30, 30]
000000 03 12 4f 3e 2e 6f 72 bd e1 6b 62 3d 4b 95 2b 3d
       0.20221715 -0.05918806 0.055278663 0.041890424
000010 74 0b 0a 3e 9e c7 87 bc b3 52 68 3e 65 8b ba bd
       0.13480932 -0.016574677 0.22687797 -0.09108619
000020 a0 00 23 3d cc 88 13 3e 4a c2 4d be a8 e2 b9 bd
       0.039795518 0.14407653 -0.20093647 -0.090764344
000030 ef 5d ef 3d 5d 17 d6 3c bd d5 28 3e 06 ee 3b 3e
       0.11687838 0.026134187 0.16487785 0.18352517
000040 2f 08 c1 bd e8 49 51 bb 01 30 34 be 51 56 8d 3e
       -0.09425389 -0.003193492 -0.17596437 0.27604917
000050 a5 f6 bf 3d 2e a5 ca 3c 40 f3 0c bc ea 97 eb 3d
       0.093732156 0.024736967 -0.008602917 0.11503585
000060 ea 12 c8 3d 35 1d b2 bd 7b b2 f6 bc e2 ba ce 3d
       0.097692326 -0.08696977 -0.030114403 0.10094239
000070 20 da 1e be fc be 25 3e 37 96 b8 be 8e 81 95 3d
       -0.15512896 0.16186136 -0.36052105 0.07300101
000080 94 3e 69 be e7 19 70 3d ad b1 45 3d b9 61 8c 3e
       -0.22777778 0.058618452 0.048265148 0.27418306
000090 78 cc aa 3b f2 e8 e3 3e cf 35 01 be b0 e3 b2 be
       0.005212363 0.4451366 -0.12618183 -0.34939337
0000a0 df f3 82 bd 7d 66 12 3e 0d 46 9b 3b 5e dc 3b be
       -0.06394171 0.14296909 0.0047385753 -0.18345782
0000b0 7e 58 38 3c 03 05 30 bd 9a 95 04 bd 58 01 7c bd
       0.011251567 -0.04297353 -0.032369234 -0.06152472
0000c0 c3 a3 7a bb 21 b9 89 3e 52 78 27 bd 2e ec 34 3e
       -0.0038244582 0.26899055 -0.04088623 0.1766822
0000d0 29 46 0d be 6c d5 93 bc 83 8c cf bd e4 2c 0c 3e
       -0.13796295 -0.018046103 -0.10134222 0.13689
0000e0 b5 ea 99 3e 9e a4 00 be bc 00 80 3e 1b 12 99 3b
       0.3006188 -0.12562796 0.2500056 0.004671348
0000f0 ed 8b 47 bd d5 58 3c 3d 8e cf 21 3e 8f 64 37 3e
       -0.048717428 0.045983154 0.15801832 0.17909454
000100 5d 81 92 3d f5 cc 72 bc aa 7b 4c 3e c9 45 a9 bd
       0.0715358 -0.014819373 0.19969049 -0.082652636
000110 f4 ac bc bd 5c 14 ad bd b1 ee 43 bd e2 15 14 3d
       -0.09212676 -0.08451149 -0.047835056 0.03615368
000120 3d 12 8e 3c 43 43 98 bc e5 9d 23 bd 3a 8c c6 bc
       0.017342681 -0.01858676 -0.0399455 -0.024236787
000130 d7 91 1c 3e fa b1 29 3e 35 39 30 be 2f 99 4a 3d
       0.15290008 0.16571799 -0.17209323 0.049462494
000140 17 c2 92 3d 7b 5e 8e 3d 6a 01 0e bc 2f 93 93 3d
       0.07165926 0.069516145 -0.008667329 0.072058074
000150 6c 63 5a 3d f2 a8 33 3e 49 ba 20 be eb 93 8a bd
       0.053317472 0.17544916 -0.15696062 -0.06766494
000160 ba ba d1 bd 7a 84 b2 bd 61 9f 96 3b 8d c3 e6 3d
       -0.102406934 -0.08716674 0.004596636 0.11267767
000170 e7 0e 0d be 5e 32 f3 3d c8 5f 12 3e 66 bb eb bd
       -0.13775216 0.11874841 0.1429435 -0.11510353
000180 2a 89 91 bd 3b 59 08 be 4f 76 8c 3c 31 f2 b5 bd
       -0.0710624 -0.13315289 0.017146258 -0.08884085
000190 cb e4 a6 bd 3f 5a 12 be 10 e7 1b be 9d a4 11 3e
       -0.081491075 -0.14292239 -0.15224862 0.14222951
0001a0 df c3 ed bc 76 77 57 bc 15 05 cf bd 12 4f 02 3e
       -0.029024063 -0.01315104 -0.10108391 0.12725475
0001b0 6a 04 d6 bd 6c 92 04 be 63 e8 18 be 27 35 1d be
       -0.10450061 -0.1294648 -0.14932398 -0.15352307
0001c0 35 b0 95 3d a8 b2 1b be 53 b2 de bc 91 02 59 bd
       0.073089994 -0.1520487 -0.027184641 -0.052980963
0001d0 19 ec 2b 3b b5 9f 56 3d b7 1d 0f be e1 a6 27 3e
       0.0026233254 0.052398402 -0.13976179 0.16372253
0001e0 cd ef 1b 3e ec 87 ac bd 2c 5a 1d 3e 18 4d 2d bd
       0.15228195 -0.084243625 0.15366429 -0.04230985
0001f0 1c 76 40 3e b7 12 0b 3e 44 c8 92 3d 18 a7 ef 3d
       0.18795055 0.13581358 0.07167104 0.117017925
000200 82 f1 01 3e 27 51 41 3e 4b 5e e3 3d cc db 1d be
       0.12689784 0.18878613 0.11101969 -0.15415877
000210 bc 39 fc 3b 42 1e 68 3e 4f 4d ea 3d bc c3 f8 3d
       0.007697312 0.22667792 0.11440527 0.12146708
000220 15 ba 8d be d7 64 dd bd 48 89 08 3e 68 cc 01 bd
       -0.27681032 -0.10810249 0.13333619 -0.031689078
000230 9b 87 87 bc d7 67 89 3d 22 54 39 bd 1f a2 2a 3e
       -0.016544154 0.06709259 -0.04524625 0.16663407
000240 0c 7a 10 bd 1e 06 dc 3d c3 ce f5 3d 6a 94 06 3e
       -0.035272643 0.10743354 0.12002327 0.13142553
000250 4b 0c 98 3d b7 dd 2e be b0 af 83 3c 52 54 a3 3c
       0.0742422 -0.17076765 0.016074985 0.019937668
000260 31 be 04 be 3a dd 4a 3d 43 d4 64 be eb d1 70 bc
       -0.12963177 0.049527384 -0.22346596 -0.014698486
000270 29 d3 88 3e 23 98 77 be de 1d 14 3e df 65 72 3d
       0.26723602 -0.2417913 0.14464518 0.059179183
000280 45 04 4a 3c c1 1c 00 bc 9f eb 21 be 46 92 0a 3d
       0.0123301195 -0.007819355 -0.15812539 0.033830903
000290 f7 f8 05 be c2 06 01 bd 1c de fb 3d b6 63 86 bd
       -0.13083254 -0.031500585 0.122982234 -0.06561987
0002a0 7e a1 7f be d2 92 e6 bc 61 e9 05 3e eb 61 12 3e
       -0.24963948 -0.028146181 0.13077308 0.14295165
0002b0 11 72 1a 3d e2 0a 34 3c 06 ee 6b 3d 2b ba 1b be
       0.03770644 0.010988923 0.057600044 -0.15207736
0002c0 90 d7 9f bd c1 a8 27 be 22 91 31 be aa 00 67 bd
       -0.07804787 -0.16372968 -0.1734052 -0.056397118
0002d0 a6 b4 a9 3d 07 26 a2 3d 27 1c 58 be bf a6 02 3d
       0.08286409 0.079174094 -0.2110449 0.031897303
0002e0 c9 3f 17 39 33 1b 4e 3d 72 b7 b6 3d 49 1a 67 bd
       0.00014424244 0.050318908 0.08921708 -0.05642155
0002f0 dc 7b 0d bd e6 fb 82 3e b7 c1 4a be 14 41 bc bc
       -0.03454195 0.25582808 -0.19800459 -0.02298025
000300 d1 f7 34 3e e1 a6 da 3d ab e0 61 3d 52 75 b4 3d
       0.1767266 0.10676361 0.0551459 0.088114396
000310 55 78 1a 3e a8 ec f9 bc 53 4e ca bd eb 89 0b 3e
       0.15084966 -0.030508354 -0.098782204 0.1362683
000320 c1 98 7e 3d 6a 8f bf bc 48 c2 bd 3d 4c 3a 4c be
       0.062157396 -0.023383815 0.09265572 -0.19944113
000330 ce 32 ca bd 71 c1 0c 3e c2 a8 12 3e 0b 60 2c 3d
       -0.098729715 0.13745667 0.14322188 0.04208378
000340 c9 d8 03 3c 96 fa 30 bd 23 d5 17 be 8c ad ce 3d
       0.008047291 -0.043207727 -0.14827399 0.10091695
000350 8a d3 ac bb 54 76 9a bd 45 81 eb bd b0 b4 8c 3c
       -0.005274241 -0.075421005 -0.114992656 0.017176002
000360 9f 05 36 be f8 7f 0e be 83 dc a4 bc 87 54 e9 3d
       -0.17775582 -0.13916004 -0.02012468 0.113930754
000370 a0 01 56 3e f1 7b 72 be 17 11 15 3e c8 cc 3e 3d
       0.20899057 -0.23680092 0.145573 0.046582013
000380 a1 cf 38 be 1e 0a 38 3e cc 5f fd bd 62 85 a3 bc
       -0.18047954 0.1797261 -0.123717874 -0.019961063
000390 34 90 4f bd 96 0d cc be be bc 81 3c 8f bf a6 bd
       -0.050674632 -0.39854115 0.01583707 -0.08142006
0003a0 e5 f2 dc 3b 86 27 50 be dd 6b 29 3e e8 d4 0e 3e
       0.0067428225 -0.20327577 0.16545053 0.13948405
0003b0 ac 09 24 3d ab 44 3d bd 74 24 a4 3d bb 36 f2 bd
       0.040048286 -0.046208065 0.080147654 -0.11826845
0003c0 f3 cb 1d 3e 9e 7b 01 bd 48 6b 21 3d b2 88 e6 bc
       0.15409832 -0.03161203 0.039408952 -0.028141353
0003d0 34 6a 96 bd b0 4d 1f 3e fa 63 03 be 4a 5a 74 be
       -0.073444754 0.15556979 -0.12831107 -0.23862568
0003e0 af 30 26 3e 3a ed e0 be 87 69 c6 3d c0 15 e9 3c
       0.16229509 -0.4393099 0.096880965 0.028452754
0003f0 b4 52 5d 3d fa 95 c5 be 6c 64 29 bd 87 aa 1d 3e
       0.05403395 -0.38590986 -0.041355535 0.15397082

layers.3.bias f4 [30]
000000 43 a9 08 3e d0 39 8c 3e e3 11 5b 3e ca 35 9e bd
       0.13345818 0.27387857 0.21393542 -0.07725103
000010 71 d4 09 3e fd c1 c5 3e b1 7c e0 3d bb a3 b8 3e
       0.13459946 0.38624564 0.10961283 0.36062416
000020 0d ea d3 3e 3b 51 6d bd bd 6d 0f 3d 61 d2 00 3e
       0.41389504 -0.057938796 0.035016764 0.12580253
000030 6e 28 74 3e 4b 9b 83 3e ad 65 6a 3d 0a 10 17 3e
       0.23843548 0.25704417 0.05722587 0.14752212
000040 05 d0 ad bd 5b 2e 96 3e d8 9a 68 3e f5 a5 66 3d
       -0.08486942 0.2933224 0.22715318 0.056310613
000050 ed e8 cb 3e 0a 19 3e bd 75 63 ab 3e c2 e6 3a 3e
       0.39826146 -0.046410598 0.33474317 0.1825209
000060 b1 ef fc 3c f1 d7 2d bd 8a ab e2 3e 89 5b 07 be
       0.030876013 -0.042442266 0.442715 -0.13218512
000070 71 de d7 bc 9a b2 12 be
       -0.026351186 -0.14325944

layers.4.weight f4 [3, 30]
000000 98 be be 3d 8e ed 22 bf 70 43 64 3e ee 27 31 be
       0.093136966 -0.6364373 0.2229135 -0.17300388
000010 4b 6c 03 be fe 01 57 3e e7 ee 7f be ac c0 f7 3e
       -0.12834279 0.20996854 -0.24993478 0.48389184
000020 2b 99 21 bf 99 56 fd bd 15 2c 25 3e d4 a0 5d be
       -0.6312434 -0.12370033 0.16130097 -0.21643382
000030 d8 0a 99 bd 04 85 ad bd 0b 46 36 3d a8 b3 94 be
       -0.074727714 -0.08472636 0.044500392 -0.29043317
000040 ca 32 30 3d f4 d6 d4 3e be 0f 9a 3e 59 fb a2 3d
       0.043017186 0.41570246 0.30090135 0.07958097
000050 4c 9b 1b 3e 38 ec 19 be 61 28 55 bd 3d 6c af 3d
       0.1519596 -0.15031517 -0.05204046 0.08565567
000060 25 7a a1 bd a5 c8 14 be f4 fe b1 3e 59 5e a7 3d
       -0.07884625 -0.14529665 0.34764826 0.08172292
000070 7b a0 de 3d fa 63 e4 bc ef ba 19 be a9 84 22 3e
       0.10870453 -0.027879704 -0.15012716 0.15870918
000080 04 7f 2c 3e a2 f9 81 3d ef 35 83 be 77 0d 6e 3e
       0.16845328 0.06346442 -0.25627086 0.23247324
000090 b0 84 69 3d 22 a1 ee bd ef d2 21 bd 82 91 30 be
       0.057011306 -0.116518274 -0.039507803 -0.17243007
0000a0 91 07 6f 3c 29 9a 2c 3d d4 22 b3 3e ff 25 72 bf
       0.014589206 0.042139206 0.3498751 -0.9458923
0000b0 19 52 45 3e 3f 40 f2 ba 78 9d 87 bc 98 e8 72 3e
       0.19269599 -0.0018482282 -0.01655458 0.2372154
0000c0 22 64 1d 3d af c9 a8 3d d0 91 11 3d 96 20 67 bd
       0.038425572 0.08241593 0.03553945 -0.05642756
0000d0 c1 63 83 3d 06 a0 e0 be 41 b9 b4 3d 7d 1e fd 3d
       0.06415511 -0.43872088 0.08824397 0.12359331
0000e0 03 1d 6e 3e 03 18 90 3c 61 c7 e3 3d 6b d3 35 3d
       0.23253255 0.017589575 0.11122013 0.044391077
0000f0 38 95 dc 3d 8b 0f 44 3e 25 d2 40 bb b5 26 ed 3c
       0.10770649 0.19146554 -0.002942213 0.028949121
000100 51 42 0c be 02 b8 18 3e 21 03 12 3e fa 4f bf 3c
       -0.13697173 0.14913943 0.14259006 0.023353565
000110 dc f4 81 bd e5 37 9f 3d da 89 be 3d 84 39 b2 bc
       -0.06345531 0.07774333 0.09303637 -0.021755941
000120 a3 b1 c6 bc 94 41 ee b9 4d 1a 6c 3d d6 12 9c 3d
       -0.024254626 -0.00045443757 0.05764227 0.0762078
000130 1f 31 f1 bb 3a 39 73 be 51 78 99 bd 2e 62 c5 3d
       -0.007360592 -0.23752299 -0.07493652 0.09637867
000140 e7 7d cd bd be 83 0f bb 5b af ff bd c9 06 8d bd
       -0.100337796 -0.0021898593 -0.12484618 -0.0688606
000150 39 4c b2 3d 9c e1 10 be bc 5f b6 bc e3 66 b8 bd
       0.087059446 -0.14148563 -0.022262447 -0.09003999
000160 31 e3 88 bd fe a9 08 be
       -0.06683958 -0.13346097

layers.4.bias f4 [3]
000000 4f 8d 7c 3f 9e 92 25 3e e7 16 3f be
       0.9865312 0.16169211 -0.1866108
