data/model1_5l_30h_20000e_0.005d.pt (torch, 15267 bytes, 10 tensors)

layers.0.weight f4 [30, 3]
0.025257712 0.27525848 -0.47518533 -0.32456052 -0.43834803 0.15482073 0.099628545 0.21562785
-0.0512364 0.12155128 -0.12889491 -0.11348708 -0.5515707 -0.38236874 -0.23799711 0.049495347
0.48772407 0.34642333 -0.37483314 0.052618433 0.20970349 0.40343922 0.16713123 0.43203798
-0.09788382 0.0814502 0.5227769 -0.5355907 -0.36346388 -0.14616501 -0.21651109 0.45838276
-0.3742267 -0.2663542 -0.3975158 -0.54072374 -0.12143151 0.66345716 0.2576243 0.26292095
0.008322011 -0.29599795 0.14970836 -0.699106 -0.4171738 -0.10624079 0.713303 0.33851272
-0.25524992 0.12036824 0.36925054 0.52772987 0.37039977 0.0779959 0.33642212 -0.39835358
0.10758577 -0.44762284 -0.40015346 -0.29824966 0.24077706 0.261981 -0.34199488 0.09512877
-0.034183115 -0.072871625 0.04613817 0.23500484 0.3581746 0.3867694 -0.31546044 -0.2115814
0.17161724 0.89257056 0.5024144 0.44467777 0.23157018 -0.5020538 0.052282818 -0.3792178
-0.53806394 0.45982927 0.40694308 -0.575923 0.122860685 -0.08214242 -0.095009424 -0.26642913
0.22657244 -0.3419666
00000000: 43e9 ce3c aeee 8c3e 7e4b f3be cc2c a6be
00000010: 276f e0be 5389 1e3e 0d0a cc3d 8ccd 5c3e
00000020: 42dd 51bd e1ef f83d 07fd 03be ea6b e8bd
00000030: bd33 0dbf d6c5 c3be 84b5 73be a2bb 4a3d
00000040: f8b6 f93e 665e b13e 21ea bfbe 6d86 573d
00000050: 83bc 563e 968f ce3e 7324 2b3e 1534 dd3e
00000060: 5077 c8bd 5dcf a63d b5d4 053f 791c 09bf
00000070: f017 babe 48ac 15be 15b5 5dbe 25b1 ea3e
00000080: a49a bfbe 945f 88be 3187 cbbe df6c 0abf
00000090: 15b1 f8bd 54d8 293f 55e7 833e 939d 863e
000000a0: 0b59 083c 0b8d 97be 264d 193e 9cf8 32bf
000000b0: ce97 d5be c594 d9bd 079b 363f 8a51 ad3e
000000c0: 1eb0 82be a083 f63d 680e bd3e 4e19 073f
000000d0: 0aa5 bd3e 50bc 9f3d 853f ac3e 00f5 cbbe
000000e0: ee55 dc3d d22e e5be eae0 ccbe 2eb4 98be
000000f0: 438e 763e 6022 863e f419 afbe dfd2 c23d
00000100: 9803 0cbd b83d 95bd 61fb 3c3d 1ca5 703e
00000110: a962 b73e a406 c63e 0884 a1be cba8 58be
00000120: 6ebc 2f3e 817f 643f 3b9e 003f ceac e33e
00000130: bc20 6d3e 9986 00bf 8226 563d d628 c2be
00000140: 8fbe 09bf be6e eb3e d85a d03e b16f 13bf
00000150: 629e fb3d 493a a8bd 4d94 c2bd 6669 88be
00000160: 9b02 683e 3f16 afbe

layers.0.bias f4 [30]
0.21165161 0.2919707 0.41330865 0.2158777 -0.5714239 -0.3745253 0.28827965 0.12084019
-0.4503817 -0.33244953 0.54314184 0.38902894 -0.25173923 -0.14531028 -0.5499828 -0.010377374
-0.43477875 -0.445343 -0.031811774 0.08668628 -0.23644242 0.3425867 -0.3513402 0.52387035
0.39565805 -0.48686963 -0.14369343 0.026051559 0.084236026 0.13693263
00000000: 33bb 583e 2f7d 953e 319d d33e 0b0f 5d3e
00000010: d648 12bf c8c1 bfbe 6499 933e 107b f73d
00000020: 6e98 e6be d336 aabe 580b 0b3f cd2e c73e
00000030: f7e3 80be 38cc 14be accb 0cbf dc05 2abc
00000040: 529b debe ff03 e4be 104d 02bd 9488 b13d
00000050: f61d 72be 8667 af3e dde2 b3be 5e1c 063f
00000060: b193 ca3e fa46 f9be 5f24 13be 146a d53c
00000070: f083 ac3d 1138 0c3e

layers.1.weight f4 [30, 30]
0.07173222 0.018095272 -0.09767864 0.09072157 -0.17513408 -0.10821294 -0.045567565 -0.09669516
-0.06406408 -0.14964175 -0.038682938 0.04606495 -0.11894083 -0.010334715 0.15591052 -0.018768672
0.0050721634 -0.027870052 0.05407366 0.11608787 0.16838545 0.110965475 0.17308237 0.0021258483
-0.18206686 -0.09276009 0.1372187 -0.014949168 -0.085145354 -0.13990875 -0.17086242 -0.15409411
-0.037032753 0.10012478 0.0987071 -0.17608036 0.1138865 -0.14286602 -0.03859806 -0.074028835
-0.035166577 -0.03584711 -0.16383293 -0.15764147 -0.028569113 0.0023610825 -0.082938865 0.06877555
-0.16432743 -0.012321427 0.16055928 -0.07447055 0.16486505 0.06611993 -0.16476607 0.115514204
-0.021068051 -0.08150236 0.14599605 -0.14753732 0.027757773 -0.03822532 0.14398967 0.04066768
0.087727875 0.07067669 -0.043904472 -0.056029156 -0.1504444 0.09892675 0.1518517 0.12492179
-0.12586139 -0.004038209 -0.13204427 -0.09770154 -0.10638698 0.04197805 -0.1350608 -0.0039832587
0.0036233466 0.12417586 -0.1334392 -0.16390951 -0.09992912 0.108881265 -0.068099886 0.14483187
0.057540826 0.02416645 -0.0041283825 -0.041798037 -0.021854261 -0.09007362 -0.0012828454 0.020506248
-0.07299856 -0.07161915 0.12302436 -0.14816748 -0.020040987 0.17139992 -0.03907387 0.0050107543
-0.21275096 0.022893947 -0.105251014 -0.08940958 -0.119507864 -0.027036933 0.012398126 0.1792567
0.035453584 0.045874663 0.13799722 -0.105983384 0.057251777 -0.07231955 -0.11888488 0.05223026
0.06384437 0.12502743 -0.07614771 -0.0007740788 0.09399349 -0.20217802 0.12748319 -0.16958106
0.0035788715 -0.031040672 -0.08665923 0.019554144 0.15796295 -0.052308295 -0.13263838 -0.077452
-0.18150489 0.06747259 -0.072553545 -0.121839106 -0.10965784 0.078758836 0.077053316 0.15745369
0.028385041 -0.059508305 -0.058313042 0.025139347 0.15860279 0.050873473 -0.086384125 -0.085824
-0.17261824 0.03944479 -0.102457434 -0.16277872 0.160095 -0.118565716 -0.02076992 0.052306324
0.0058165076 -0.12285083 -0.14757867 0.14552668 0.029730143 0.15146802 -0.061206277 0.053778216
-0.04175037 -0.008119283 -0.11119574 0.061746757 0.057723735 -0.0037662445 -0.041061327 -0.11254417
0.12625822 -0.13591263 0.07479434 -0.061391212 -0.06924381 0.053462625 -0.21495917 0.028471038
0.035854075 -0.059831798 0.0030762483 0.055123497 0.05069173 -0.022982199 -0.11695328 -0.028531305
0.13743666 -0.059063412 0.014297825 0.22451447 -0.065565504 -0.0018340376 -0.073910676 0.01430977
0.029189385 -0.067997776 -0.084180154 0.026343241 0.27887398 0.19049336 0.08249623 -0.014142443
0.13546687 -0.08437594 -0.11541611 -0.15795118 -0.05417614 0.07807953 -0.12620144 0.27047414
0.046808194 0.16475366 0.09116293 0.14145005 0.024013342 -0.06624401 0.3459114 0.110498175
-0.24336748 0.3956823 0.1416573 0.14805496 -0.46560884 0.0523805 -0.045905974 0.0061372733
0.12354492 0.0949554 0.44224167 0.11807341 -0.11845533 0.013785853 -0.036639344 0.050344873
-0.106413804 -0.1177956 -0.22300637 0.11376427 0.09877914 0.24108751 0.16692533 -0.21624097
-0.13356961 -0.029500809 -0.09563569 0.1269461 -0.04774126 -0.09965878 -0.2624085 -0.0052010566
00000000: 58e8 923d 893c 943c bd0b c8bd 3bcc b93d
00000010: 5956 33be bf9e ddbd 0ea5 3abd 1d08 c6bd
00000020: 0734 83bd b03b 19be 0072 1ebd 9aae 3c3d
00000030: 4097 f3bd f052 29bc 02a7 1f3e c2c0 99bc
00000040: 6434 a63b bc4f e4bc 587c 5d3d 7abf ed3d
00000050: 3c6d 2c3e de41 e33d 813c 313e d151 0b3b
00000060: bc6f 3abe 01f9 bdbd 0f83 0c3e 5bed 74bc
00000070: b060 aebd 3d44 0fbe 8ff6 2ebe d9ca 1dbe
00000080: a8af 17bd 380e cd3d f326 ca3d 694e 34be
00000090: 533d e93d 784b 12be 0019 1ebd 6e9c 97bd
000000a0: d40a 10bd 6bd4 12bd d2c3 27be c46c 21be
000000b0: c609 eabc 64bc 1a3b dadb a9bd 32da 8c3d
000000c0: 7345 28be d0df 49bc a769 243e 0484 98bd
000000d0: 62d2 283e e369 873d 70b8 28be b692 ec3d
000000e0: e896 acbc b6ea a6bd fd7f 153e 0614 17be
000000f0: 4564 e33c 2792 1cbd 0772 133e 2793 263d
00000100: acaa b33d f1be 903d 2dd5 33bd d47e 65bd
00000110: 190e 1abe 1c9a ca3d 037f 1b3e ffd6 ff3d
00000120: cfe1 00be f452 84bb 9d36 07be bf17 c8bd
00000130: 6be1 d9bd 2df1 2b3d 614d 0abe ff85 82bb
00000140: ab75 6d3b ea4f fe3d 49a4 08be e5d7 27be
00000150: a3a7 ccbd 24fd de3d f477 8bbd ce4e 143e
00000160: eeaf 6b3d b8f8 c53c 6247 87bb 6b34 2bbd
00000170: b507 b3bc 8578 b8bd 2625 a8ba b8fc a73c
00000180: 4580 95bd 10ad 92bd 32f4 fb3d 37b9 17be
00000190: ff2c a4bc 7683 2f3e ec0b 20bd 4131 a43b
000001a0: 63db 59be 168c bb3c d88d d7bd 5f1c b7bd
000001b0: 8ac0 f4bd 8f7c ddbc 8221 4b3c 128f 373e
000001c0: c737 113d 12e7 3b3d 254f 0d3e d10d d9bd
000001d0: d780 6a3d 461c 94bd ea79 f3bd 66ef 553d
000001e0: d6c0 823d 3107 003e 55f3 9bbd 8deb 4aba
000001f0: a97f c03d c107 4fbe f48a 023e a8a6 2dbe
00000200: 808b 6a3b 0249 febc 657a b1bd 0330 a03c
00000210: 0ac1 213e 3941 56bd 5bd2 07be 279f 9ebd
00000220: 6bdc 39be 122f 8a3d f496 94bd c886 f9bd
00000230: 4a94 e0bd 504c a13d 21ce 9d3d 8a3b 213e
00000240: bf87 e83c fbbe 73bd a8d9 6ebd 08f1 cd3c
00000250: c568 223e b460 503d 29ea b0bd 7ec4 afbd
00000260: d6c2 30be dc90 213d 34d5 d1bd 77af 26be
00000270: f2ef 233e 95d2 f2bd ae25 aabc 283f 563d
00000280: 6798 be3b 3799 fbbd dd1e 17be f204 153e
00000290: a18c f33c 6f1a 1b3e 6fb3 7abd 8c46 5c3d
000002a0: 7002 2bbd be06 05bc 98ba e3bd 2bea 7c3d
000002b0: b96f 6c3d 19d3 76bb ec2f 28bd 8f7d e6bd
000002c0: d649 013e ae2c 0bbe c62d 993d 5a75 7bbd
000002d0: b3cf 8dbd a0fb 5a3d 421e 5cbe 183c e93c
000002e0: b9db 123d 3012 75bd e29a 493b 2dc9 613d
000002f0: 22a2 4f3d 2a45 bcbc 3485 efbd 7cba e9bc
00000300: 32bc 0c3e 7aec 71bd 6d41 6a3c 1fe7 653e
00000310: 3547 86bd 1764 f0ba 7b5e 97bd 8773 6a3c
00000320: 941e ef3c 6b42 8bbd a566 acbd c8cd d73c
00000330: 92c8 8e3e b110 433e c9f3 a83d b5b5 67bc
00000340: d4b7 0a3e 4bcd acbd 485f ecbd f4bd 21be
00000350: cde7 5dbd 29e8 9f3d f33a 01be 967b 8a3e
00000360: f3b9 3f3d 2fb5 283e a1b3 ba3d 48d8 103e
00000370: a1b7 c43c f1aa 87bd 4d1b b13e de4c e23d
00000380: 5335 79be df96 ca3e 9c0e 113e b89b 173e
00000390: 4864 eebe ef8c 563d e707 3cbd 2e1b c93b
000003a0: 1e05 fd3d fa77 c23d 806d e23e 79d0 f13d
000003b0: b598 f2bd 0fde 613c 2313 16bd 6d36 4e3d
000003c0: 7bef d9bd d23e f1bd c85b 64be 3efd e83d
000003d0: b84c ca3d a5df 763e 79ee 2a3e 466e 5dbe
000003e0: 79c6 08be aeab f1bc a5dc c3bd 29fe 013e
000003f0: 578c 43bd e719 ccbd 685a 86be a06d aabb

layers.1.bias f4 [30]
0.103971854 -0.1140632 -0.10594659 0.08069747 -0.012792238 -0.17244107 -0.105269544 0.074039824
-0.061924726 0.126018 0.14433217 0.02655905 -0.014437006 -0.057954002 -0.009232016 0.033232316
-0.13945948 -0.04363444 -0.15186538 0.11205579 -0.116269864 0.16678952 -0.047064118 -0.104592234
0.08771834 0.027217992 0.1264246 0.07621919 -0.17588091 0.115476415
00000000: 32ef d43d f899 e9bd 87fa d8bd b744 a53d
00000010: 8996 51bc 6494 30be 8f97 d7bd 31a2 973d
00000020: c8a4 7dbd dd0a 013e d0cb 133e 5d92 d93c
00000030: 3189 6cbc 2d61 6dbd e241 17bc 9c1e 083d
00000040: 77ce 0ebe 07ba 32bd 9982 1bbe 827d e53d
00000050: e51e eebd dfca 2a3e 4ec6 40bd 7434 d6bd
00000060: aca5 b33d 44f8 de3c 7375 013e cf18 9c3d
00000070: 201a 34be e67e ec3d

layers.2.weight f4 [30, 30]
-0.037509445 -0.08069251 0.1406415 -0.25111574 -0.09134442 -0.016508969 0.22522995 0.19742751
0.32725945 -0.08499192 -0.17291728 -0.11171228 0.17199223 0.15884006 -0.25325915 0.036797024
0.15396245 -0.1718208 0.05146273 0.088671364 -0.043108206 -0.011086192 0.09052144 -0.105906434
0.38707885 0.25513846 -0.24483602 -0.043142583 0.1319671 0.019763209 0.07011683 -0.13382812
0.057073187 -0.020401469 0.06647444 0.12894166 0.054137625 -0.12207762 -0.011116238 -0.114506915
-0.06603746 -0.016516756 -0.1264305 0.11515558 -0.072396494 -0.04403367 -0.021277094 -0.16754203
-0.018280316 -0.022014884 -0.032294676 -0.034686264 0.14393733 0.1176997 -0.16211314 0.024814604
-0.14366479 -0.1554293 -0.04103365 0.0019896524 -0.088623725 -0.17609349 -0.07068106 0.04647512
-0.16733839 -0.17736451 0.02933755 -0.10838394 -0.15812421 -0.072040826 -0.03931734 -0.16399956
-0.11943433 0.011970997 -0.18642713 -0.045282714 -0.117888644 -0.12656723 0.07637344 -0.14061089
-0.13836096 0.100054435 0.03413522 0.16627266 -0.030802205 -0.08318245 -0.038090266 0.0009237088
0.13923916 -0.18185848 -0.0129994145 0.08076209 -0.100540504 -0.09277339 0.08823222 -0.17493989
0.043262005 -0.14134647 0.090750664 -0.1561083 0.112247474 -0.17283067 -0.15346579 0.0026905758
0.14386635 -0.15635572 -0.08143899 0.16035172 -0.03061722 0.07563767 -0.17563604 -0.057416093
-0.092717044 0.15392122 0.07577557 -0.13321994 0.029435886 -0.0020984062 -0.075014226 -0.10426385
-0.061611395 0.14390981 -0.13209839 -0.25497812 -0.03396273 0.0031761208 0.069352515 -0.01433067
0.035307195 -0.11944989 -0.05672436 -0.18226318 0.14375587 -0.17799307 -0.16521777 -0.1802837
-0.040995486 0.1422752 0.13902885 -0.16171357 -0.037140843 0.08315794 0.080478236 0.15560873
0.07580299 -0.01025229 0.03986195 -0.06260735 0.028429277 -0.045559816 0.077611215 0.16421196
0.17022331 -0.052952234 -0.12078022 -0.075488366 -0.08359256 0.3666566 -0.066706136 -0.12754901
-0.08124421 0.04963336 0.1012652 -0.16195177 -0.17016144 -0.2164077 0.09493658 0.090325885
-0.05511984 0.045569856 0.1814973 0.028548589 -0.038629334 0.008133651 -0.04657007 -0.0075666895
-0.121618874 0.09258382 0.2191083 -0.10899413 0.14800641 0.17932159 -0.06124465 -0.07416198
0.09810062 -0.14303234 0.08765474 0.107793204 0.09486203 -0.15722041 -0.161496 0.05079795
0.10120167 -0.17884623 -0.114666276 -0.08552668 -0.056583703 -0.08230668 0.1758287 -0.051257037
0.10074441 0.20026572 0.08320494 -0.16414508 0.089548744 0.11357457 0.21257003 -0.18009742
0.16640836 0.15123415 -0.17860432 0.019102061 0.1873846 -0.22977425 0.08461051 0.0806754
0.107818745 0.40905467 0.18586312 0.14558442 -0.043678887 0.16800188 -0.04803534 -0.114300676
-0.116502136 0.13499044 0.35206407 0.086182036 0.18615305 0.09214656 -0.17096885 0.055705696
0.02666032 0.061504155 0.13910553 0.09948194 -0.005044561 0.15276736 0.096116565 -0.123349175
0.12748954 0.12363111 -0.05876861 0.039892536 -0.15814386 -0.15246655 0.061780088 -0.08032501
0.0948681 -0.13659078 -0.005165682 0.06906693 0.097896524 0.1464029 0.17186189 0.09093053
00000000: 81a3 19bd 1d42 a5bd 5304 103e 3e92 80be
00000010: c912 bbbd d13d 87bc aea2 663e 702a 4a3e
00000020: 8d8e a73e 3e10 aebd 3a11 31be 68c9 e4bd
00000030: bb1e 303e f8a6 223e 2fab 81be 7ab8 163d
00000040: 55a8 1d3e cbf1 2fbe 95ca 523d 5599 b53d
00000050: 3b92 30bd dca2 35bc 4e63 b93d 79e5 d8bd
00000060: 332f c63e 82a1 823e 4bb6 7abe 47b6 30bd
00000070: 6222 073e 74e6 a13c 6a99 8f3d 3d0a 09be
00000080: 93c5 693d fb20 a7bc c023 883d 4809 043e
00000090: 6abf 5d3d d503 fabd e220 36bc 9a82 eabd
000000a0: a63e 87bd 264e 87bc ff76 01be b0d6 eb3d
000000b0: 9d44 94bd a65c 34bd 4d4d aebc 2390 2bbe
000000c0: 9ac0 95bc 8f58 b4bc 6c47 04bd 2f13 0ebd
000000d0: 4f64 133e 8a0c f13d fd00 26be ff47 cb3c
000000e0: dd1c 13be dc28 1fbe e712 28bd d464 023b
000000f0: 5b80 b5bd da51 34be 3bc1 90bd b25c 3e3d
00000100: c15a 2bbe 0b9f 35be 4d55 f03c 66f8 ddbd
00000110: 50eb 21be 248a 93bd 380b 21bd 80ef 27be
00000120: fc99 f4bd 0022 443c c1e6 3ebe 5e7a 39bd
00000130: 9a6f f1bd d79a 01be ae69 9c3d 4dfc 0fbe
00000140: 7fae 0dbe 57e9 cc3d 5fd1 0b3d 6143 2a3e
00000150: e854 fcbc 8f5b aabd 8a04 1cbd 0c25 723a
00000160: b694 0e3e 1c39 3abe 7ffb 54bc 9866 a53d
00000170: 2ee8 cdbd faff bdbd 18b3 b43d 7123 33be
00000180: 8033 313d 21bd 10be 7cdb b93d dbda 1fbe
00000190: 01e2 e53d 86fa 30be 2326 1dbe 5f54 303b
000001a0: b351 133e b71b 20be 7cc9 a6bd 3e33 243e
000001b0: f7d0 fabc ece7 9a3d efd9 33be 232d 6bbd
000001c0: 6fe2 bdbd 869d 1d3e 3930 9b3d cf6a 08be
000001d0: 8723 f13c 6a85 09bb 0fa1 99bd 4988 d5bd
000001e0: 3b5c 7cbd 185d 133e cd44 07be 7e8c 82be
000001f0: 811c 0bbd 7726 503b b108 8e3d 30cb 6abc
00000200: 479e 103d 25a2 f4bd cd57 68bd 33a3 3abe
00000210: bd34 133e d143 36be d92e 29be 4a9c 38be
00000220: e2ea 27bd 97b0 113e 945d 0e3e 3e98 25be
00000230: ff20 18bd b64e aa3d c6d1 a43d e557 1f3e
00000240: 993e 9b3d 39f9 27bc 4946 233d 4838 80bd
00000250: 84e4 e83c ee9c 3abd a1f2 9e3d 2e27 283e
00000260: 054f 2e3e 71e4 58bd 9f5b f7bd a599 9abd
00000270: 9332 abbd 6aba bb3e 3a9d 88bd 359c 02be
00000280: 5d63 a6bd 5a4c 4b3d 2164 cf3d afd6 25be
00000290: cd3e 2ebe fb99 5dbe 1c6e c23d c7fc b83d
000002a0: 57c5 61bd 75a7 3a3d 6eda 393e bbde e93c
000002b0: cb39 1ebd 0143 053c 42c0 3ebd fef1 f7bb
000002c0: 5113 f9bd 969c bd3d ed5d 603e 5038 dfbd
000002d0: fe8e 173e 14a0 373e acdb 7abd 3ce2 97bd
000002e0: fae8 c83d 1277 12be 5484 b33d afc2 dc3d
000002f0: 0647 c23d 63fe 20be 355f 25be 8311 503d
00000300: d242 cf3d 7723 37be 27d6 eabd 9d28 afbd
00000310: 50c4 67bd 6890 a8bd 700c 343e e6f2 51bd
00000320: 1653 ce3d 7512 4d3e 5a67 aa3d a615 28be
00000330: 5565 b73d c999 e83d f5ab 593e 756b 38be
00000340: f466 2a3e 20dd 1a3e 0de4 36be ed7b 9c3c
00000350: c0e1 3f3e f149 6bbe 4648 ad3d 2539 a53d
00000360: 13d0 dc3d 9d6f d13e e752 3e3e 1514 153e
00000370: a2e8 32bd af08 2c3e b4c0 44bd 7916 eabd
00000380: ac98 eebd ef3a 0a3e be41 b43e 3580 b03d
00000390: e89e 3e3e 56b7 bc3d 7512 2fbe a82b 643d
000003a0: be66 da3c c8eb 7b3d ae71 0e3e 30bd cb3d
000003b0: d84c a5bb 0c6f 1c3e c3d8 c43d 7e9e fcbd
000003c0: 9e8c 023e 4f32 fd3d 5bb7 70bd 5b66 233d
000003d0: 77f0 21be 3120 1cbe 1e0d 7d3d 7081 a4bd
000003e0: 354a c23d 74de 0bbe e244 a9bb f672 8d3d
000003f0: f97d c83d a4ea 153e 90fc 2f3e c939 ba3d

layers.2.bias f4 [30]
-0.00057517143 0.030149305 0.15938698 -0.05658358 -0.07175205 -0.115652755 0.13453181 -0.051724665
-0.06837863 0.123487614 0.16799812 -0.0076939166 -0.12869766 0.14875872 -0.06244124 -0.08413472
-0.12835401 -0.08780633 -0.14298573 -0.10538442 -0.16631742 -0.03679833 0.073408544 -0.13859671
-0.00025497156 -0.06732638 0.088310815 0.1581314 -0.02420258 -0.09188953
00000000: 1ac7 16ba adfb f63c 5736 233e 2fc4 67bd
00000010: bdf2 92bd 5adb ecbd b5c2 093e 3edd 53bd
00000020: 180a 8cbd 13e7 fc3d b307 2c3e 401d fcbb
00000030: 52c9 03be 3554 183e 63c2 7fbd d34e acbd
00000040: 3c6f 03be ced3 b3bd da6a 12be c9d3 d7bd
00000050: 1d4f 2abe d8b9 16bd 3857 963d 4cec 0dbe
00000060: b4ad 85b9 6ae2 89bd 4ddc b43d 33ed 213e
00000070: 7d44 c6bc 9430 bcbd

layers.3.weight f4 [30, 30]
-0.13713425 -0.10606809 0.05203903 0.041890424 0.10383743 -0.061637655 0.03253512 -0.2117918
0.032834113 0.23364261 -0.16072321 -0.14651161 0.11687838 -0.029955046 -0.08465861 0.10991657
0.032490563 0.0071508917 -0.046226602 0.10780445 0.22554828 0.057848644 -0.06962999 0.053629726
0.15437835 -0.04284577 -0.043919656 0.082768604 -0.088524 0.17196563 -0.28935668 0.08424831
-0.13114531 0.058618452 0.097687826 0.025217434 -0.05949533 0.06138687 -0.09353777 -0.10711811
-0.1597205 -0.13273731 0.0047385753 -0.11937029 0.0011441815 0.021269651 0.17042582 -0.07916566
-0.049379624 0.062549055 -0.00024290067 0.17921834 -0.06080721 -0.025517851 -0.03677069 0.089663036
0.046325546 -0.13819548 0.12030573 -0.010614772 0.08141683 -0.0014644321 0.12670648 0.17909454
0.111151695 0.024686974 0.15199128 -0.038695022 -0.12187676 -0.0687475 -0.124135345 0.08620108
0.017342681 -0.038723424 -0.00066603406 -0.012545326 0.14199679 0.16297783 -0.14098354 0.10528069
0.02611514 0.06574585 -0.027184041 0.056798972 0.03731332 0.16831619 -0.14821555 -0.036959894
-0.12272527 -0.09088881 -0.16317394 0.11134901 -0.13806516 0.11874841 0.116108544 -0.08371029
-0.0053283987 -0.16059364 0.08442162 -0.068814754 -0.080575295 -0.1425425 -0.15224862 0.10210722
-0.064912386 0.01155415 -0.070881836 0.12725475 -0.10450061 -0.14231035 -0.0986737 -0.15352307
0.18984465 -0.16695336 -0.023749871 -0.052847955 0.04211358 -0.0031998504 -0.14017884 0.16558558
-0.13456494 0.013518876 -0.014787093 -0.04230985 0.13453645 0.14794789 0.02360632 -0.060156047
0.12157652 0.11688508 0.04191563 -0.050121788 0.007697312 0.17650561 0.043656416 -0.043094415
-0.15192086 -0.09783833 0.13248831 0.008817839 -0.0043077352 0.07328576 -0.1370454 -0.009620393
-0.04639854 0.100181274 0.14272788 0.13200778 0.1361064 -0.16214266 0.070979096 -0.016923115
-0.14962187 0.049527384 -0.08541844 0.050342906 0.024000041 -0.14671771 0.075993225 0.13748865
0.0014156258 0.19211864 -0.15812539 -0.070653 0.008749636 -0.021161212 0.043734297 -0.053580157
-0.16546421 0.050333224 0.24721311 0.18226255 -0.16131552 0.07474377 0.13379294 -0.055209674
-0.04219889 -0.13767423 -0.07717027 -0.042406626 -0.07064607 -0.005322148 -0.083109416 0.031897303
-0.18511915 -0.045431446 -0.00551021 -0.08929968 0.026515098 0.16230564 -0.14145273 -0.124845214
0.1767266 -0.012147708 -0.07483402 0.11342383 0.14382166 -0.030508354 -0.06919536 -0.09654898
0.18911152 -0.007612797 0.095759034 -0.18729326 -0.06287268 0.15835561 -0.0023252051 -0.013916092
0.060047798 -0.042428493 0.017239677 0.033178627 -0.044494182 -0.075421005 0.06492757 0.07250169
-0.06244051 -0.08882952 -0.07321943 -0.076098435 0.17180581 -0.02341883 0.145573 0.11449322
-0.08513466 0.12967442 -0.19738084 -0.010615088 -0.11748053 -0.100867584 0.07434816 -0.081728525
0.02511128 -0.062472437 0.17915201 0.15433398 0.09867292 -0.009828355 -0.11278067 -0.10974649
-0.029434903 -0.090805486 -0.02116791 -0.028141353 0.0104258 -0.14310835 0.06341461 -0.19434859
0.20929615 0.0018572799 -0.057921097 -0.058147952 0.05403395 -0.06780879 -0.17999086 0.14048325
00000000: ec6c 0cbe 3a3a d9bd e126 553d 4b95 2b3d
00000010: b8a8 d43d c477 7cbd 8c43 053d f3df 58be
00000020: 107d 063d 0240 6f3e a094 24be 2407 16be
00000030: ef5d ef3d 4964 f5bc 7e61 adbd f01b e13d
00000040: d314 053d 0752 ea3b 1b58 3dbd 94c8 dc3d
00000050: 21f6 663e b3f2 6c3d 2b9a 8ebd d8aa 5b3d
00000060: 5c15 1e3e 0c7f 2fbd 19e5 33bd 9682 a93d
00000070: 124c b5bd c217 303e 8f26 94be 618a ac3d
00000080: f54a 06be e719 703d 8e10 c83d cb94 ce3c
00000090: 60b1 73bd cc70 7b3d bb90 bfbd bd60 dbbd
000000a0: c58d 23be 4aec 07be 0d46 9b3b 6978 f4bd
000000b0: 5cf8 953a b13d ae3c 1b84 2e3e 9b21 a2bd
000000c0: 4a42 4abd b819 803d 27b3 7eb9 0385 373e
000000d0: fb10 79bd d00a d1bc dd9c 16bd 41a1 b73d
000000e0: dbbf 3d3d 1e83 0dbe da62 f63d 95e9 2dbc
000000f0: debd a63d 30f2 bfba 58bf 013e 8f64 373e
00000100: 80a3 e33d 563c ca3c 9aa3 1b3e ac7e 1ebd
00000110: 869a f9bd 7dcb 8cbd ac3a febd 318a b03d
00000120: 3d12 8e3c 749c 1ebd ca98 2eba e98a 4dbc
00000130: 9b67 113e a9e3 263e fd5d 10be 679d d73d
00000140: 6bef d53c c3a5 863d 11b1 debc 0aa6 683d
00000150: dad5 183d 145b 2c3e d1c5 17be 4263 17bd
00000160: 6357 fbbd ea23 babd 1217 27be f30a e43d
00000170: f460 0dbe 5e32 f33d 51ca ed3d 4d70 abbd
00000180: d999 aebb a972 24be 3ee5 ac3d c0ee 8cbd
00000190: a904 a5bd a9f6 11be 10e7 1bbe 971d d13d
000001a0: c9f0 84bd 9e4d 3d3c 7f2a 91bd 124f 023e
000001b0: 6a04 d6bd ceb9 11be 7015 cabd 2735 1dbe
000001c0: a366 423e d2f5 2abe 178f c2bc 1977 58bd
000001d0: 4a7f 2c3d 95b4 51bb 0b8b 0fbe 448f 293e
000001e0: 64cb 09be 477e 5d3c 9045 72bc 184d 2dbd
000001f0: ecc3 093e a77f 173e 0b62 c13c 3066 76bd
00000200: 1cfd f83d 7261 ef3d b9af 2b3d 814c 4dbd
00000210: bc39 fc3b e3bd 343e 12d1 323d c583 30bd
00000220: 2491 1bbe 765f c8bd 04ab 073e b378 103c
00000230: e727 8dbb d816 963d a155 0cbe da9e 1dbc
00000240: 650c 3ebd d72b cd3d 4227 123e 0c2d 073e
00000250: 7a5f 0b3e ba08 26be 7d5d 913d 58a2 8abc
00000260: 7a36 19be 3add 4a3d ddef aebd 5d34 4e3d
00000270: bc9b c43c 2b3d 16be 56a2 9b3d d3c9 0c3e
00000280: 858c b93a c0ba 443e 9feb 21be 85b2 90bd
00000290: a25a 0f3c 475a adbc bc22 333d de76 5bbd
000002a0: 736f 29be 362a 4e3d 6f25 7d3e 09a3 3a3e
000002b0: e52f 25be 4313 993d 0401 093e 8a23 62bd
000002c0: bed8 2cbd 79fa 0cbe 720b 9ebd 92b2 2dbd
000002d0: e3ae 90bd 6a65 aebb 4535 aabd bfa6 023d
000002e0: e08f 3dbe 5316 3abd fe8e b4bb c0e2 b6bd
000002f0: 3136 d93c 7333 263e fcd8 10be d9ae ffbd
00000300: d1f7 343e 2e07 47bc 9442 99bd c14a e83d
00000310: fc45 133e a8ec f9bc 4cb6 8dbd 79bb c5bd
00000320: 73a6 413e c574 f9bb 501d c43d cec9 3fbe
00000330: 64c3 80bd f927 223e 7862 18bb 5200 64bc
00000340: aef4 753d 80c9 2dbd 393a 8d3c 50e6 073d
00000350: 883f 36bd 5476 9abd bff8 843d c47b 943d
00000360: 9fc1 7fbd 40ec b5bd 12f4 95bd 7fd9 9bbd
00000370: dded 2f3e d9d8 bfbc 1711 153e 6c7b ea3d
00000380: 155b aebd 5fc9 043e 341e 4abe e8ea 2dbc
00000390: a299 f0bd aa93 cebd d943 983d 4961 a7bd
000003a0: 2cb6 cd3c 19e3 7fbd a073 373e ba09 1e3e
000003b0: 0715 ca3d 1c07 21bc 8df9 e6bd c5c2 e0bd
000003c0: 7721 f1bc 3af8 b9bd 5368 adbc b288 e6bc
000003d0: fad0 2a3c ff8a 12be 85df 813d 5103 47be
000003e0: bb51 563e f96f f33a ac3e 6dbd 8c2c 6ebd
000003f0: b452 5d3d 56df 8abd 864f 38be d7da 0f3e

layers.3.bias f4 [30]
-0.051362745 0.037580047 0.07739078 0.013811711 0.049477283 0.18250737 -0.0632459 0.124432504
0.15726727 -0.16150808 0.044163644 0.103419036 -0.028479226 0.10076239 0.0062100543 0.13899066
0.0039310893 -0.11688808 0.13865386 0.054298345 0.15532853 0.045322824 0.0969482 0.11383709
0.030743064 -0.042442266 0.03770787 -0.12729985 0.006237325 -0.058681984
00000000: be61 52bd 89ed 193d 0f7f 9e3d 844a 623c
00000010: b1a8 4a3d 36e3 3a3e 1187 81bd 78d6 fe3d
00000020: ac0a 213e 6062 25be f0e4 343d 5ccd d33d
00000030: 444d e9bc 835c ce3d b67d cb3b 9153 0e3e
00000040: 5ed0 803b 0563 efbd 47fb 0d3e f167 5e3d
00000050: 710e 1f3e 6da4 393d c78c c63d 6c23 e93d
00000060: e1d8 fb3c f1d7 2dbd 9173 1a3d e45a 02be
00000070: 7962 cc3b 855c 70bd

layers.4.weight f4 [2, 30]
-0.2628539 -0.17271698 -0.0057496736 -0.097450435 -0.023523508 -0.05319625 -0.2272965 0.23729299
-0.22076342 -0.17349894 0.097958684 0.00014160376 0.17017788 -0.31280047 -0.029746434 -0.23027
0.07237984 0.11656563 0.26998943 0.013443042 -0.29823133 -0.23518671 0.17909129 0.07351703
-0.074109316 -0.1645175 0.24284534 0.27730346 0.10492457 0.018904721 -0.112789065 0.07267257
0.013093244 0.059554264 -0.016987843 -0.050932232 0.14507732 0.03599006 -0.062234696 0.02190659
-0.03975756 -0.010062151 0.048776798 -0.11258583 0.16552173 0.12786812 0.0022585 -0.09670739
0.0518054 -0.12084738 0.14056943 -0.094274305 -0.006275751 -0.14216323 0.08721111 0.123758025
0.044542264 -0.00038853602 0.10776331 0.062250692
00000000: c994 86be b8dc 30be c267 bcbb 1894 c7bd
00000010: 5fb4 c0bc 50e4 59bd 6ac0 68be effc 723e
00000020: ce0f 62be b5a9 31be 909e c83d 787b 1439
00000030: 1c43 2e3e 6227 a0be cbae f3bc e6cb 6bbe
00000040: e23b 943d f6b9 ee3d 0e3c 8a3e 3440 5c3c
00000050: c7b1 98be c9d4 70be b563 373e 1990 963d
00000060: a0c6 97bd 4777 28be 73ac 783e b8fa 8d3e
00000070: b1e2 d63d 13de 9a3c f4fd e6bd 5bd5 943d
00000080: 0c85 563c 2cef 733d 172a 8bbc 519e 50bd
00000090: 268f 143e 506a 133d cfe9 7ebd 7375 b33c
000000a0: d3d8 22bd b8db 24bc 2eca 473d 6693 e6bd
000000b0: 877e 293e dcef 023e 5803 143b 860e c6bd
000000c0: e631 543d d57e f7bd 6ff1 0f3e e312 c1bd
000000d0: d1a4 cdbb 3d93 11be bd9b b23d d974 fd3d
000000e0: f371 363d 6cb4 cbb9 03b3 dc3d 95fa 7e3d

layers.4.bias f4 [2]
0.12243717 0.10302804
00000000: 57c0 fa3d 5d00 d33d
