data/model2_5l_30h_20000e_0.005d.pt (torch, 15607 bytes, 10 tensors)

layers.0.weight f4 [30, 3]
00000000: 4300 933e f646 843c e615 d9be 8d80 87be
00000010: 0ea3 d5bd 3d70 2d3e 799b a13d 614c 283e
00000020: b985 adbd ed30 6d3e 34cf 4bbd 3d8c 2dbe
00000030: da69 adbe da7b d43d eee5 85be 95fd 82be
00000040: f06c 07bb 27a6 ad3e 8fc8 76be d730 b0bd
00000050: d086 2d3e 6806 933e b395 893e 93e9 bf3e
00000060: ada8 9dbe 5a0c 03bd 3e53 d93e f9a2 9bbd
00000070: 5a70 e6bd 0071 2ebe 413d 613e 1c4e 6b3c
00000080: ceb5 adbe 3590 8f3e e66d e1bd d11c 1bbf
00000090: a48c c6be ee07 133c 7a2a 823e af1d d03e
000000a0: 7c65 923e fc92 adbe 9660 8a3e 3bef 2abd
000000b0: 14a0 adbe c6d5 cabe 421e 9f3d ea91 ad3e
000000c0: 2c5a abbe 6f23 103d 0693 ad3e 80d2 a03d
000000d0: 25ba e2bd 0000 ad3d 3adc 223b c9de 1dbe
000000e0: 14a2 8337 d7c4 153e 8cf0 04be 9b1a aebe
000000f0: ef47 ab3e a4dc 8c3c a792 adbe 928d b13d
00000100: fb42 273e e979 adbd ac46 a6be e054 c63b
00000110: 6796 ad3e ac58 c83e a35c 3abc 6429 82be
00000120: 9a48 a7be 4976 d83d 3431 023f 2a95 203f
00000130: ea7f 0fbe 3b2a 02bf 6507 0d3f 751c 32bd
00000140: 06dd 2dbf e550 053f 1c66 ca3d c02b 02bf
00000150: 0432 ec3d 469b 12bd 269d adbd e712 4e3e
00000160: de56 643c 65bf adbe
0.28711137 0.016147118 -0.4239952 -0.26465264 -0.10431491 0.16937347 0.07890982 0.16435386
-0.08472771 0.23163195 -0.04975815 -0.16948028 -0.3386982 0.10375185 -0.26151985 -0.25584093
-0.0020664297 0.33915827 -0.24099945 -0.086030655 0.16945958 0.28715825 0.26872024 0.3748289
-0.30792752 -0.0319942 0.4244632 -0.07599444 -0.11251898 -0.17035294 0.21996023 0.014361884
-0.33927768 0.2803971 -0.110072896 -0.60590845 -0.38779175 0.008974059 0.25423032 0.40647647
0.2859305 -0.33901203 0.27026814 -0.041732054 -0.33911192 -0.3961622 0.07769443 0.33900386
-0.33467233 0.035190042 0.33901232 0.0785265 -0.110706605 0.084472656 0.0024850504 -0.15417017
1.569189e-05 0.1462587 -0.12982386 -0.34004673 0.33453318 0.017195053 -0.3390095 0.086695805
0.16334145 -0.08470518 -0.32475793 0.0060525984 0.3390381 0.3913015 -0.011374625 -0.25422204
-0.32672578 0.10569436 0.5085633 0.62727606 -0.14013639 -0.5084569 0.5508941 -0.04348417
-0.6791538 0.5207656 0.09882757 -0.5084801 0.11532977 -0.03579261 -0.08477239 0.20124398
0.013936726 -0.33935085

layers.0.bias f4 [30]
00000000: bd74 4cbf 5dd3 83bd b3ec bb3d b168 a93e
00000010: 56a1 45bf 2087 613f c0e9 773e 75b6 003f
00000020: 990b 81bd 6dbc 6abf 8b26 22bf 42eb 8ebd
00000030: a97b ec3e eb9e 1fbf 0b4f bebf c19b 093f
00000040: fee2 863b 4215 913e 9740 3b3f 9508 55bf
00000050: 129f 80bf 36c5 073f 4b2c d63e d363 033f
00000060: d15a a13f 947a babf 8946 80bf 69e9 0bbf
00000070: 3b3c 933e c364 81bf
-0.7986563 -0.06436799 0.09176006 0.33087686 -0.77199304 0.8809681 0.24210262 0.5027841
-0.0630104 -0.91693765 -0.6334006 -0.069784656 0.46188095 -0.62351865 -1.4867872 0.53753287
0.004116415 0.2833653 0.7314543 -0.8321622 -1.0048544 0.53035295 0.41830668 0.51324195
1.260584 -1.4568658 -1.0021526 -0.5465303 0.2875689 -1.0108875

layers.2.weight f4 [30, 30]
00000000: f589 873b 1d6e 8c3e 36cd 38be d41f e5bd
00000010: 2b30 913a 708b e83d ded0 443e 24de 70bb
00000020: e984 b63b 09a3 97ba e7fa 8f3e 7a5a 163b
00000030: e560 133e 90d7 473d c413 ef3d 1a5c 8fbe
00000040: fadc 1c3e dbe4 e73b 4964 853d 59d5 99b8
00000050: 8d12 0f3f 6083 24be 04c3 b7be 4337 143e
00000060: 85c1 fcbb 3234 50bd 5d25 e93b a0b7 b2bd
00000070: b506 373b faac 153e 6ebb 05bc a12b 853e
00000080: 667d 54bd 6c57 fc3d e055 49b9 3d22 7cbe
00000090: 98d4 353f 19b7 8639 52ac 09bc 2e1d 23bc
000000a0: 5ce1 2cbd 47f2 4a3a 29bc 86bb 41ab 6c3c
000000b0: 82e7 933e 9d62 39bd 8d95 26be cb91 96ba
000000c0: 0648 06bf 529a 3cbc 9968 6a3e 3edf 46bd
000000d0: e940 f7be 7563 f5bb bd5e f23a 9ae5 8e3d
000000e0: 65ef 57bb f7b8 8eba 63ba af3b 28e5 403b
000000f0: 114f 133c 10fa b13c 4342 553f aadf 2ebe
00000100: d62c 66ba bb3a 15bd c688 8d3d e3e4 9939
00000110: e906 973c 365c 453a 953e 19bd dd41 433b
00000120: 604d 31bf a410 5b3b fea0 023c a1d9 a3bc
00000130: 3115 913b 84ba e23b 2719 53bd 40a2 c33a
00000140: 5892 35bd 3329 173f 000f 533d c068 39bf
00000150: 0e4e afbb 2c40 78bb 03db fdba a45b 253c
00000160: 17cf 863f 81f7 87bc 011d 7c3c 2be4 a2be
00000170: bae2 763e a76d 3f3d b810 ab39 a982 a53e
00000180: 489c 57bf 06cc b63a 3996 8a3c 302b 5f3c
00000190: 681e d53e 9746 faba abb4 f03d 11b6 953c
000001a0: 11ca 27be caa9 853d fefe 4cbe 3f79 f13a
000001b0: 0647 f63e 0af3 1e3c 6cde 9abe cc04 6c3e
000001c0: b4f4 3c3e 95a9 fa3d 63b3 c3bb 4f16 41bb
000001d0: 97d1 ca3b ff92 f43c 5209 f2bc 64e8 503e
000001e0: 3fa5 0abc afdd 9a3e ca74 24bd 8984 623d
000001f0: 3ed6 cf39 18b8 fa3d e402 163f 213a 5b38
00000200: dfda 23bc 5abd afbb 2086 e53e 4484 0839
00000210: 0147 053d 178e 0ebd 53dd 483e 2209 06bd
00000220: 1448 8f3c e683 f1ba cf03 84bd af82 e2bb
00000230: 7100 c63e 1576 2cbd fa00 e2be afff da3c
00000240: 51ae 083c 415e 30bd 51b3 933b 9909 103d
00000250: b150 793a 08ea 713e d97c 113b ce63 dbbc
00000260: a306 543d 4b64 893d 122f 56ba 6942 b23c
00000270: d0d6 fa3d 8aa3 fc39 aa52 503b 5b39 5c3a
00000280: 12ac e03d 5f06 11ba edd4 0abd 1522 be3c
00000290: b4b3 be3c 9051 8e3e 0fd2 60be 5752 55bb
000002a0: 9ba7 02be 623f 50bb 2cac 55bc 6941 493d
000002b0: 896f 61be 25e8 11bd de86 2cba 681d eabd
000002c0: dc04 8238 2efc 59bd 2d1a 9fbc 8c1b c53d
000002d0: 4b7a e73b 0840 e23d dc6c 7f3d d406 9c3e
000002e0: 784c e438 e135 54bd 975a 6e3e 2790 29ba
000002f0: 4239 703c b76c 943c 738d 1f3e 56a8 183a
00000300: 35c4 383c d709 d73c 7f73 da3d 2131 3d3e
00000310: 88ae 30be 49bb db3a bbd2 683f 39d4 e6bb
00000320: 676b 3c3d 203a 8c3d 67a9 acbe 4d8a 293c
00000330: 53bc fe3a 0975 833a 51f4 59bb 1860 513d
00000340: 55cd f1bb 22ff 043e 2b30 11bb 35bd ca3b
00000350: 3613 0abd b197 173f 86f3 44b9 76a3 b1bd
00000360: e5d5 4c3e ec63 29ba e8c3 f1b8 2990 c9ba
00000370: dfef fa3b 4470 1839 25c6 233d 2316 e3bc
00000380: b028 da3d 8a27 a73e bd98 fabd 7f91 aa39
00000390: 907e 9dbd 3930 0abc 0e08 973d c6fc ddbc
000003a0: 69dd 38be 32c9 273d 3040 b23b d73b 0c3d
000003b0: a84f bcbb 5e7a 43bc 7a13 06bc d4b1 123d
000003c0: 7d4b c2bb ae53 343d 4b7c 9abc 6cfb f33e
000003d0: 40f8 c0b9 55d3 71be 4a6f 003e 125e 8a38
000003e0: 0b6f e4bb 222a 3abb bb15 8fbd bb8d ecba
000003f0: 377c a73c 0444 213d 05ba 183e 25c1 91be
0.004136319 0.2742776 -0.18047032 -0.11187711 0.0011076977 0.113547206 0.19220302 -0.00367535
0.0055700433 -0.0011568974 0.2812111 0.0022942112 0.14392431 0.04878956 0.11673692 -0.27999955
0.15318671 0.0070768422 0.065132685 -7.3353476e-05 0.5588768 -0.1606574 -0.35890973 0.14474206
-0.007713499 -0.050831027 0.0071150498 -0.0872643 0.0027927582 0.14616767 -0.0081623625 0.2600985
-0.0518774 0.12321362 -0.00019200845 -0.24622436 0.7102752 0.0002569489 -0.008402901 -0.009955687
-0.042207107 0.00077417906 -0.004111786 0.014445127 0.28887564 -0.04526006 -0.16267987 -0.0011487541
-0.5245365 -0.011511402 0.22891463 -0.048552744 -0.4829171 -0.007488663 0.0018491369 0.06977387
-0.0032949087 -0.0010888864 0.005362795 0.0029433463 0.008991019 0.021725684 0.8330423 -0.17077509
-0.0008780485 -0.036432963 0.06910853 0.00029352968 0.018435912 0.0007528694 -0.0374132 0.0029793896
-0.6925869 0.0033426667 0.007972954 -0.020001234 0.004427575 0.006919207 -0.05153766 0.0014925674
-0.044329017 0.5904724 0.051527977 -0.7242546 -0.005349881 -0.0037880046 -0.0019367639 0.01009265
1.0531949 -0.016597511 0.015387774 -0.31814703 0.24109927 0.046735432 0.00032628118 0.32326248
-0.8422284 0.0013946302 0.016917335 0.013621137 0.4162476 -0.0019094524 0.1175321 0.018275293
-0.16385676 0.06526525 -0.20019147 0.0018422975 0.48101062 0.0097015 -0.3024782 0.23048705
0.18452722 0.122393765 -0.0059723123 -0.002946276 0.006189536 0.02985525 -0.02954546 0.2040115
-0.008462249 0.30247256 -0.04015044 0.055302177 0.0003964174 0.12242144 0.5859816 5.2267806e-05
-0.010000913 -0.0053631486 0.44828892 0.00013019243 0.032538418 -0.034803476 0.19615678 -0.032723553
0.017490424 -0.001842615 -0.06446039 -0.0069125514 0.38672212 -0.0421048 -0.4414137 0.026733248
0.0083423415 -0.043058638 0.00450746 0.035165403 0.000951062 0.23624432 0.002219966 -0.026780989
0.05176414 0.067085825 -0.0008170466 0.021760182 0.122480035 0.00048187032 0.0031787553 0.00084008806
0.1097032 -0.00055322604 -0.033894468 0.023209611 0.023279049 0.27796602 -0.21955131 -0.00325503
-0.12759249 -0.003177606 -0.013041537 0.049134646 -0.22015204 -0.03562178 -0.0006581376 -0.1143139
6.199788e-05 -0.053219013 -0.019421661 0.09624395 0.007064139 0.11047369 0.062359676 0.3047396
0.000108861306 -0.051809195 0.23276745 -0.0006468319 0.014662089 0.018118246 0.15581302 0.0005823424
0.011277248 0.02624981 0.106665604 0.18475772 -0.17254078 0.0016764189 0.9094655 -0.007044342
0.046000864 0.06847024 -0.33722994 0.010347915 0.0019434787 0.0010029386 -0.0033257196 0.051117033
-0.007379214 0.1298795 -0.0022153954 0.006187106 -0.033709727 0.5921584 -0.00018782736 -0.08673756
0.2000347 -0.0006461728 -0.00011528266 -0.0015378046 0.0076579894 0.00014537672 0.039983887 -0.027720517
0.10652292 0.32647353 -0.12236164 0.0003253333 -0.076901555 -0.008434349 0.07374583 -0.02709807
-0.18053211 0.04096336 0.0054397807 0.034236755 -0.0057468005 -0.01193103 -0.0081833545 0.03581412
-0.005929409 0.044025116 -0.018858096 0.47652757 -0.00036806054 -0.23615773 0.12542453 6.597875e-05
-0.006971245 -0.002840646 -0.06986567 -0.001804761 0.020444972 0.039371505 0.14914711 -0.2846767

layers.2.bias f4 [30]
00000000: e8fe c33e 518d b13d d099 85bf 6cfe 363e
00000010: e5ab 03be 09ed f63b 0814 863d 913b 26bf
00000020: 941f 1ebf fb93 7b3f e451 2c3f 44a9 b9bd
00000030: b154 043f 05ef 7b3c 7da5 06bf 3c9d 22be
00000040: d915 443e 24ee 0bbf ec41 28bf 73dd db3d
00000050: b841 45be 8b34 723e bab1 4e3f 32cc 603e
00000060: 7f89 22be dd89 17bf 1298 ce3e a038 87bf
00000070: 633c 66bf 4a96 b63f
0.38280416 0.08669532 -1.0437565 0.17870492 -0.12858541 0.007535581 0.065467894 -0.6493464
-0.61766934 0.98272675 0.67312455 -0.09065488 0.5169173 0.015376811 -0.52596265 -0.15880293
0.19148959 -0.5466025 -0.6572559 0.107355975 -0.19263351 0.23652856 0.8073994 0.21952894
-0.15872763 -0.5919474 0.40350395 -1.0564156 -0.8993589 1.4264615

layers.4.weight f4 [30, 30]
00000000: 1ee2 cc3e 74bb e8bc 6fe2 e63e f93e 9d3d
00000010: 063b 703d c5d9 583e 484b bcbe 0cb3 963d
00000020: f1c8 7ebe aa8c e0be 7631 b6be c466 1b3f
00000030: 2e3f 563e c3c0 de3e 1587 87bd 6b8f 08bf
00000040: 9c76 49be 2139 193f 899c 463e 55e4 ee3e
00000050: 86a3 223e 4227 3d3d 6e21 34be a2f6 b2bd
00000060: da03 38be af2e ccbd d0df a5be 48f7 b1be
00000070: 0551 603d ff8f b5be cb6c 6c3e 6bbd 9a3d
00000080: 3f96 463e 520c 983c bafd a03e 126c bf3e
00000090: 5943 02be 4679 96be b2f7 0cbd f7af 64be
000000a0: c9ac 29be 2ed3 1d3e d7dd 36be 50c3 0e3f
000000b0: 6ad7 c33e ab77 1e3e c4b1 adbe c7f0 e8be
000000c0: 27c3 233f 7749 b13e cfda 00be a3f0 8f3e
000000d0: 6d36 1b3f 9d56 3c3d 6b89 0cbe efa0 2a3d
000000e0: 805a 98be 8cc9 04be cf69 cd3e b2fc f1be
000000f0: 0cd5 753c 6e12 7abd f2bf 2cbe 6223 ab3e
00000100: d94a 24bf 099c 9ebd 3f98 df3d 032f 20be
00000110: 3c42 2a3f 4566 51bd 8b96 1ebe 760e f9be
00000120: 83ee ad3d 0fbc c83d abec 22be b481 9abb
00000130: 18ed 3e3e ca33 0f3d b718 fabe b01d 9dbd
00000140: 043e ad3d 5541 c1bd cc4c 683e f76c 5b3d
00000150: 0d26 0cbd d08e 46bd c48c 383d 5214 c93d
00000160: 2a1a 9fbe 860c 48be f957 96be 9eaf 013e
00000170: 3d39 3b3e e2b3 10be 56be 38be becd 61bf
00000180: 0465 88be c060 f53d 7b0c 85be cc7e 44be
00000190: 1f18 6cbe 68e8 5cbe 1924 c2be 1e81 993e
000001a0: 9884 4f3d ec84 3c3d c496 88be 54b7 5abe
000001b0: 36fe e83d d69b 303e fb0d d4be 4951 e53d
000001c0: 9ef4 0bbf 9e97 913c fd35 0fbd f882 b23e
000001d0: d33a 64be 498e 00be c665 d1bb e90b adbe
000001e0: d50a 723d b82a ae3e cc86 a2be ac7d bdbe
000001f0: f87f d6bd 2d06 403e e9b2 57be c78a 02bf
00000200: 6ee1 9d3c 7564 0abe 785a f0bd 0a30 cebd
00000210: 9246 3cbd a047 b4be 5720 37be 07e1 5b3e
00000220: 9721 133e f32e d83d f976 903d 3f19 94be
00000230: 1c62 85bd df5e 793c a4fd c03d 8cc6 083e
00000240: 45b8 a03e 7bfc 97be 9bcf 3f3d a6d5 6a3e
00000250: e5a1 723e a6fa 05be ca8d 4a3e 077f f83e
00000260: e669 693f 4adf 6d3e 12c8 823d af92 dbbe
00000270: 17bb 2fbe f493 243e 3df6 76bf 53bc 923e
00000280: def4 28bf eef9 9b3e c96f 4bbf 6da6 cdbd
00000290: cd29 30be 23a0 83be 5b99 0bbf 09ac c53e
000002a0: 3eff b7be 9a68 a63c b33d ee3e 53e7 0ebe
000002b0: 4628 5cbf 07fc d7bc 69b2 efbe 7d96 0c3e
000002c0: 1a9c dfbe a33c 38bf 50c4 adbd 9d48 163d
000002d0: 11e2 7e3c 38c4 a73e d922 273d 837e f6bd
000002e0: b61b 533e 9fcd c03d 2129 3b3f f46d e9bd
000002f0: 0c93 a73d a8a9 c83d bf6f babe 0d14 87be
00000300: d2f4 503c 5cd3 b83e 6b48 9fbd e175 4dbd
00000310: 2d26 30bc 839b 833e d36e 0f3e 5fc0 e2be
00000320: 4a47 513f fd18 e73e 3c71 503e 3fd6 873c
00000330: 7077 60bd 6e3d 973d 87e9 093f e963 79bd
00000340: 656d a83b f6ad 6a3f d5a1 44be ba65 89be
00000350: 1a02 4c3e bd57 e1bc d238 39bd 5e3d 243e
00000360: b7ad 833d 3819 213f acaf ac3d 244a 19be
00000370: 3dfa e5bc 9bac 4dbd a80f 75bd 3031 25be
00000380: cabd 2a3e 76e9 65be 45f5 1d3c ab09 b83d
00000390: eaf7 8cbe 62a9 5d3e 95d0 04bf 10b4 733d
000003a0: 63a5 19bf 0997 113f 0c67 30be e803 333e
000003b0: 8d53 063f 62cc 5ebe 93a4 1fbf 31e1 bb3e
000003c0: 198a b53e 16dc 0b3f 0bf4 2abe f54d 10be
000003d0: 6e66 72bd 0bc9 e9be fd3f 88be c334 85be
000003e0: e728 56bd 51a4 53be 13ec 58bd b267 a83e
000003f0: 4164 a03e 6872 96be d21a adbc 5730 a7bd
0.40016264 -0.028409697 0.4509463 0.07678027 0.05865004 0.21176822 -0.36776185 0.07358369
-0.2488134 -0.43857318 -0.3558461 0.6070368 0.20922539 0.4350644 -0.06617562 -0.5334384
-0.19674152 0.59852797 0.19395651 0.4665858 0.15882692 0.046180017 -0.17590877 -0.08738448
-0.17970219 -0.09969842 -0.32397318 -0.34758973 0.054764766 -0.35461423 0.23088376 0.0755566
0.19393252 0.018560562 0.31443578 0.3738714 -0.12721004 -0.293894 -0.03441591 -0.2233275
-0.16569819 0.1541259 -0.17858063 0.55766773 0.38250285 0.15475337 -0.33924687 -0.454962
0.63969654 0.34626362 -0.12583469 0.2811328 0.6062992 0.04598104 -0.13724296 0.041657384
-0.29756546 -0.12967509 0.40119788 -0.47263104 0.015004408 -0.061052732 -0.16870096 0.33425432
-0.6417671 -0.07744605 0.109177105 -0.15642934 0.66507316 -0.051122922 -0.15487115 -0.48643845
0.08492758 0.09801494 -0.15910594 -0.004715169 0.18645132 0.0349615 -0.4884698 -0.07671678
0.08459094 -0.09436289 0.22685546 0.053570714 -0.034215976 -0.04847604 0.04505612 0.09818329
-0.3107465 -0.19536027 -0.29363993 0.12664649 0.18283553 -0.1413112 -0.18041357 -0.8820456
-0.2663957 0.11981344 -0.25986084 -0.19188994 -0.23056076 -0.21573031 -0.37918165 0.2998132
0.05066356 0.0460252 -0.26677525 -0.21358997 0.11376612 0.17246947 -0.41416916 0.111971445
-0.5467013 0.017772492 -0.034963597 0.34865546 -0.22288065 -0.12554277 -0.006390306 -0.3379815
0.05909236 0.34016967 -0.31743467 -0.37009943 -0.10473627 0.18752356 -0.21064343 -0.5099301
0.019272532 -0.13514884 -0.117360055 -0.100677565 -0.04596574 -0.35210896 -0.1788343 0.2147256
0.14368282 0.1055583 0.07053942 -0.2892551 -0.065128535 0.015220373 0.09423378 0.1335699
0.31390586 -0.29684815 0.046828847 0.22933063 0.2369457 -0.13083896 0.1978065 0.48534414
0.91177213 0.2322971 0.06385817 -0.42885348 -0.17161213 0.16072065 -0.9646948 0.28659305
-0.6599864 0.3046412 -0.79467446 -0.10041509 -0.17203446 -0.25708112 -0.54530877 0.38607815
-0.35936922 0.02031355 0.46531448 -0.1395543 -0.8599895 -0.026365293 -0.46815804 0.13729282
-0.43673784 -0.71967524 -0.08484709 0.036690343 0.015556828 0.3276689 0.040804718 -0.12035849
0.2061604 0.09414219 0.7310963 -0.11397925 0.08182344 0.09797984 -0.3641338 -0.26382485
0.012753682 0.36098754 -0.077774845 -0.050161246 -0.010751289 0.25704584 0.1400712 -0.44287392
0.81749403 0.45136252 0.20355695 0.016581653 -0.054801404 0.07384764 0.5387196 -0.060886297
0.005139994 0.91671693 -0.19202359 -0.26835424 0.19922677 -0.027507657 -0.045220204 0.16039035
0.06429618 0.62929106 0.08431944 -0.14969689 -0.028073424 -0.050213438 -0.059829384 -0.16132045
0.16673961 -0.2245234 0.009640996 0.08986219 -0.27532893 0.21646646 -0.5188077 0.059497893
-0.60017985 0.56871086 -0.1722681 0.17481959 0.5247124 -0.21757653 -0.62360495 0.36695245
0.35456923 0.546327 -0.16694658 -0.14092238 -0.059179716 -0.45661196 -0.2661132 -0.26016816
-0.0522851 -0.2066815 -0.052959513 0.32891613 0.31326488 -0.2938416 -0.021130953 -0.08163517

layers.4.bias f4 [30]
00000000: 0743 adbe e8d8 d43e ef56 18be c475 6abe
00000010: 6b8d 973d c1ae 7dbc ff88 fb3e 5369 d8bd
00000020: 7ffc 47bf f20a 8a3d 4a0b 8f3e 52e3 c83e
00000030: 0815 4cbe 5ee9 8c3e d1db 0dbf 5f76 b3bd
00000040: 2958 9d3b 0600 8bbf a69b 32bf 5876 9ebe
00000050: ca86 11bf 973c c13e 07dc 113f 51f4 16bc
00000060: 9a09 883e 15cd 463d 9e1f b83e 53d8 3e3f
00000070: f477 7c3e 286f e9be
-0.338402 0.41571736 -0.14876913 -0.22896487 0.0740002 -0.015483559 0.49127957 -0.10566964
-0.78119653 0.06740369 0.279383 0.39235932 -0.19929898 0.27521795 -0.5541354 -0.08762812
0.0048017693 -1.0859382 -0.6976875 -0.30949664 -0.56846297 0.3774154 0.5697636 -0.009213523
0.26569825 0.048535425 0.35961622 0.74548835 0.24655133 -0.45592618

layers.6.weight f4 [30, 30]
00000000: bda5 7cbd 9b68 cabd 50eb dd3e 8ff1 433e
00000010: cd10 3dbe e048 22bb 2602 413d 85bb 9b3c
00000020: 0fb3 6fbd 53e6 e63e 2f0e 7f3d de9e 3dbe
00000030: bc4c debe cb08 cebd 219d 033e 6d61 943e
00000040: 8d3f b0bd 7805 733e ac06 69bf 9d43 ce3e
00000050: 58bd 8f3e 3dde e23d 0abf 753e 66d3 2a3e
00000060: 51bd a53e d664 60be 3db8 b03e 51b8 b33d
00000070: 708c 89be 4033 6ebd 2633 8abe 205d 983e
00000080: faab 25be 00b5 f23d c592 47be b481 383e
00000090: 1961 0cbc 86b5 d2bc 4a0f e9ba a8cb 2fbe
000000a0: 7e2f aa3c 8d08 07be 5f63 41be 8bdd 2a3b
000000b0: 12d5 1b3e 83f3 1ebe 8d0e 423e f97d 5abe
000000c0: 53a7 7e3e 2bfa 823e 1a89 c2bd 0c7f 53be
000000d0: 98d3 823d fa51 adba 49d1 24be d68b 5dbe
000000e0: e2c3 b8be 5f2e f9bd 5531 913e 56e3 883e
000000f0: c989 bd3d edc1 483c 448e 153e 57a2 a43e
00000100: e908 1f3f bd14 a7be 5f4b e43d fbe9 b4bd
00000110: f283 0bbe 9ffd b7bd 300f ebbd ca93 78be
00000120: 9482 dabd e8ac eabe 70f5 dfbd f84d a23e
00000130: 5c45 7abd be5f 123f c944 593e f319 f4bd
00000140: e260 b73e 8b15 b7bd 260c 08bf c4ec 963e
00000150: 4c82 c3bc e5cc 0e3f 53bf 92be 4784 c1bd
00000160: 8e36 f3bd ab58 7d3e a073 27bf 5b61 023f
00000170: 47eb 9cbe 264d d7be ed36 3f3e 39e4 51bf
00000180: d6e8 3a3e 3429 a63b 51e3 07be 9cc0 24bf
00000190: 90e1 88be b3a9 d8bd 559b b5be bc52 67bc
000001a0: fc3a 8d3e 8c79 373e af5b 5c3e 6c7e 333f
000001b0: 99f1 c5be d2c3 e2bd 69d5 b7be aa8c d9be
000001c0: 4ae3 663e 4578 08bf a476 82be df8e 57be
000001d0: c6b0 353f 6be8 473e 8e41 fbbe cebf 09be
000001e0: 4308 3ebd 9865 943e 4178 e03d 3c53 f53c
000001f0: daf2 083e be40 f23d 14f4 96bd e6d9 d2bd
00000200: a269 533d 131e 1e3e 728f e83d 681d 08be
00000210: fdda a43d f726 773e 91da 99be 72c0 9abe
00000220: e7d1 f3be b7df debb 33bb 9a3c 6605 23bd
00000230: f4ff 95be e1f4 b33e eb3e e1b9 4ac8 5abe
00000240: 771c 6f3e e2aa 883d 2e1d 073f 6735 b23e
00000250: 03ad 5b3c 87a1 b3bc 4e15 963c 237f 9ebd
00000260: 2842 0cbc 1f96 bebd c968 acbe e335 223f
00000270: 2fa2 e9bd b0e7 a13e bcc4 163f e684 16be
00000280: 21fc dcbc c459 a73d 4dca 08bf a8bd f33e
00000290: da31 d1be 049d cebd da20 17be aee5 14bf
000002a0: 57fb 9c3e 8b54 ec3d 7b7f 1c3e f146 3b3f
000002b0: 37bb 4d3f ad11 91be 74a0 1d3f c309 44be
000002c0: 3bd1 0b3f 2642 10bf 3644 953d d51c 873d
000002d0: f628 22be 9738 273d d015 9dbe 006a 8e3d
000002e0: e796 b7be e373 dfbe 2355 ec3e 1153 943e
000002f0: 4d02 a0be b21f 59bd d131 263b 9246 1e3e
00000300: d916 063f 186e e5be f77d a3be f790 30be
00000310: b491 66be 77ba a4bd ad88 a3be d5a7 de3d
00000320: 8485 5bbd ff50 683e 6ee2 203d b605 6b3c
00000330: 8e7e 383e dde1 ce3e 9111 b23e f96f 893e
00000340: ae61 563e d197 37be 0d88 e3be 0d33 573d
00000350: a85e 953e 7ac2 0bbf 3b30 a73e b24f 99bd
00000360: f1c5 1bbe 8917 2a3e 28c5 58be a104 82bd
00000370: 1495 bbbc d390 0a3f 5b3d 043e 4aab 7b3d
00000380: 9d72 80bf ee8b 833f 7471 82bf 4e29 b33f
00000390: f7a3 57bf c546 a43d 078e 3fbe f1ee c2be
000003a0: d043 833f 307d 6cbf 1a68 4fbe 54b7 e13e
000003b0: 3364 583f 3564 f3be 7c28 dabe f700 07be
000003c0: c80f 923c 94d5 06bd aa6b a03d 0b73 0cbe
000003d0: f28f 643c e048 223c 91dd b4bc 5bf4 3fbe
000003e0: 2b6b b63e b69e abbe 544e c1bd 2969 0ebe
000003f0: ae50 afbd 4a77 323e 6653 c2be f04b 38bd
-0.061681498 -0.09883233 0.43343592 0.19135116 -0.1846344 -0.0024762675 0.04712119 0.019010315
-0.058520373 0.45097598 0.062269386 -0.18517634 -0.4341792 -0.10060271 0.12852909 0.2898058
-0.08605871 0.23732555 -0.91025805 0.4028596 0.28074145 0.11077545 0.23998657 0.16682205
0.32371 -0.21913466 0.34515563 0.0877539 -0.26864958 -0.058154345 -0.26992148 0.2975855
-0.16178885 0.11850929 -0.19489582 0.18018228 -0.008568072 -0.025721323 -0.0017781046 -0.17167532
0.0207746 -0.13186856 -0.18885563 0.0026071991 0.15217999 -0.1552258 0.18950863 -0.21337117
0.24868517 0.25581488 -0.09498806 -0.20653933 0.063880146 -0.0013223283 -0.16095461 -0.21635374
-0.36086947 -0.12167048 0.2835795 0.26735944 0.09254796 0.012253267 0.14605051 0.32155105
0.6212297 -0.3263301 0.111471884 -0.08833691 -0.13624552 -0.08983921 -0.11477506 -0.24275127
-0.10669437 -0.45835042 -0.10935485 0.3170011 -0.061101303 0.5717734 0.21217646 -0.11919012
0.35816103 -0.08939656 -0.5314354 0.29477513 -0.023865841 0.55781394 -0.28661594 -0.09449058
-0.1187564 0.24740855 -0.65410805 0.509298 -0.30648252 -0.42051047 0.18673296 -0.81988865
0.18252882 0.0050708298 -0.13270308 -0.643564 -0.2673459 -0.105792426 -0.3547007 -0.0141188465
0.27584064 0.1791746 0.2151935 0.7011478 -0.38660887 -0.11072506 -0.35905007 -0.4249013
0.22547641 -0.53308517 -0.2548114 -0.21050595 0.7097286 0.19522254 -0.49073452 -0.13452074
-0.046394598 0.2898376 0.109604366 0.029946916 0.1337389 0.11828755 -0.07370773 -0.10295467
0.05161441 0.1544116 0.11355485 -0.13292468 0.08049581 0.24135958 -0.30049565 -0.3022495
-0.4762108 -0.006801571 0.018888092 -0.03980007 -0.2929684 0.35147765 -0.00042962222 -0.21365467
0.23350702 0.06673218 0.527789 0.34806368 0.013407948 -0.021927608 0.018320706 -0.07739093
-0.008560695 -0.09305977 -0.33673695 0.63363475 -0.11407887 0.31622076 0.5889394 -0.14699134
-0.026975693 0.08171418 -0.53433686 0.47605634 -0.40858346 -0.10088542 -0.14758626 -0.58162963
0.30660507 0.11539563 0.15283005 0.73155123 0.8036379 -0.28333798 0.6157296 -0.19144349
0.54616135 -0.56350935 0.07288401 0.06597296 -0.15835938 0.040825453 -0.30680704 0.06953812
-0.35857317 -0.43643102 0.46158704 0.28969625 -0.31251755 -0.053008743 0.0025359283 0.15456608
0.5237861 -0.44810557 -0.3193204 -0.172428 -0.22516519 -0.08043378 -0.31940213 0.10871855
-0.053594127 0.22687148 0.03927844 0.014344623 0.18017027 0.40406695 0.34779027 0.2684324
0.209357 -0.17929007 -0.44439736 0.05253892 0.2917378 -0.5459362 0.32653984 -0.07485904
-0.15212227 0.1661054 -0.21168959 -0.06348539 -0.022898234 0.54127234 0.1291403 0.06144265
-1.0034977 1.0277078 -1.0190873 1.399698 -0.84234565 0.08021311 -0.18706523 -0.38072923
1.025507 -0.9237852 -0.20254555 0.4408518 0.8452789 -0.4753739 -0.42609012 -0.13183962
0.01782979 -0.032918528 0.07833035 -0.1371576 0.013950335 0.00990507 -0.022078307 -0.18745558
0.35628638 -0.33519524 -0.09438768 -0.13907303 -0.0856031 0.17428318 -0.37954253 -0.044994295

layers.6.bias f4 [30]
00000000: 56a3 32be 146f a5bd 3e19 563e 1ec7 a53e
00000010: c284 803e a877 593e 9d0f f9bd 8082 69bd
00000020: f560 cf3d c1a0 c8be 958b fcbc 2a56 803e
00000030: 9390 a3be c48b a93e b9d7 c5bb 3187 243f
00000040: c20e b53d 0128 113d 671d f13e 6fc1 21be
00000050: 2929 573e 2dd9 dc3d cf16 4b3d 9ff6 90bc
00000060: 94de 303e 9e57 993d 7fdd b63e 8f85 89be
00000070: 9377 b13e 6b4e 09be
-0.1744512 -0.08077827 0.20908067 0.32378477 0.25101286 0.21237051 -0.12161181 -0.05700922
0.10125915 -0.39185145 -0.030828277 0.25065738 -0.3194624 0.33114445 -0.006037679 0.64268786
0.088407055 0.03543854 0.47092745 -0.15796445 0.21011795 0.107836105 0.0495823 -0.017695723
0.17272407 0.07487415 0.35715863 -0.2685971 0.3466154 -0.1340882

layers.8.weight f4 [3, 30]
00000000: e43e 95be 0246 4c3c 5cef 80bf 271a 133f
00000010: cc65 123e e611 a13f 156e b63e 59c1 dd3f
00000020: 1488 fc3d 4612 c0bf 70f0 903d 4524 4fbe
00000030: 21d3 123f 1950 81bf 70af b13f ffe5 5dbf
00000040: 1910 73be d83b be3e 350e 27bf 44b1 2cbf
00000050: 08b5 f2be 1e3d d8bd 54ab fcbd 5e88 3a3f
00000060: 749e dbbe 4d2d 9dbd f94b 75bb 7d3c 9abf
00000070: 9ff1 84bd 44f0 40be b206 8ebd 23b5 dbbd
00000080: ef11 6b3e ba50 383f b50f 3cbe a2dc 02bc
00000090: 9ef5 0b3f 64bf f93e 5eff 5dbe 31ab 6f3f
000000a0: 8713 a83e 2cee a73e bf85 4d3e 9083 213e
000000b0: 8602 733f 46ff b6bc 8999 70bd 03a8 223d
000000c0: 3886 873f e122 e3be 88b6 e53d 9004 e7bb
000000d0: c513 74be e83a bebe 121c c7be 6543 103f
000000e0: 2dab a7bf 8c8a 4ebf 2894 b83e 90a0 b9bd
000000f0: 5721 283d 01a6 a8be a443 b13b 96a8 8bbf
00000100: cf99 223f 2e25 dfbe cf43 6dbe a94f 3ebf
00000110: f72d 12be dbc6 16bd e25a b43b da6b d1bd
00000120: 21ba a43e fe51 13be add1 a03e 7116 033f
00000130: 568e f73d 3233 763e 9455 0c3f b752 613e
00000140: bbc1 e93e add4 a8be 5e24 8b3e ad59 4cbd
00000150: fb5d 84bc 1239 133e 4c8d a23e 12d4 17bf
00000160: 4a95 44bc e59f b33d
-0.29149544 0.012467863 -1.0073047 0.5746178 0.14296645 1.2583587 0.3563086 1.732463
0.12330642 -1.5005577 0.0707711 -0.2022868 0.5735341 -1.0102569 1.3881664 -0.8667907
-0.2373661 0.37155032 -0.65256053 -0.67457986 -0.4740374 -0.10558532 -0.12337366 0.7286433
-0.42894328 -0.07674656 -0.0037429316 -1.204971 -0.06491398 -0.18841654 -0.06934871 -0.107279085
0.2295606 0.7199818 -0.18365367 -0.007987173 0.5467166 0.48778832 -0.21679446 0.9362059
0.32827398 0.32798898 0.20070551 0.15772843 0.94925725 -0.02233852 -0.058740173 0.03971101
1.0587835 -0.44362548 0.11216456 -0.0070501044 -0.23835666 -0.37154317 -0.38888603 0.56352836
-1.3099114 -0.80680156 0.36050534 -0.09063828 0.04104742 -0.3293915 0.0054096747 -1.0910823
0.63515943 -0.43583053 -0.23170398 -0.743403 -0.14275347 -0.036810737 0.005503998 -0.10225649
0.32173255 -0.14386746 0.3140997 0.5120612 0.12087695 0.24042967 0.5481808 0.2200421
0.45655617 -0.3297476 0.27176183 -0.04989021 -0.016158095 0.1437724 0.31748426 -0.5930797
-0.011998484 0.08770732

layers.8.bias f4 [3]
00000000: e353 7abf bffb 743d 76fe ca3d
-0.9778425 0.059810396 0.09911816
