data/model2_5l_30h_1000e_0.005d.pt (torch, 15595 bytes, 10 tensors)

layers.0.weight f4 [30, 3]
0.27553904 0.011796043 -0.4232423 -0.26624238 -0.10679536 0.16938731 0.07920753 0.1635952
-0.08472839 0.23216788 -0.052497905 -0.16947865 -0.35101599 0.10062252 -0.2590403 -0.2505414
-0.004831988 0.33909866 -0.2406112 -0.08715535 0.16945907 0.27381143 0.19800076 0.37993422
-0.3027697 -0.03961291 0.4244647 -0.08785936 -0.0852623 -0.1700928 0.21695924 0.013411248
-0.3392203 0.2599678 -0.12651621 -0.60642916 -0.38563287 0.015965177 0.25425497 0.40652633
0.2933576 -0.3390097 0.2687302 -0.045707576 -0.33904508 -0.3959897 0.079485945 0.33899882
-0.33391836 0.039273076 0.33896944 0.069457 -0.10841235 0.08439478 0.00214227 -0.15120433
1.3021501e-05 0.12194734 -0.12814383 -0.34025928 0.33341762 0.01909542 -0.33897418 0.0882504
0.16114666 -0.08470566 -0.32417342 0.0067051584 0.33900172 0.3907223 -0.018380374 -0.25424558
-0.32088554 0.095648594 0.50810295 0.6282601 -0.1441708 -0.50846046 0.5428207 -0.0627232
-0.6792168 0.5203006 0.10174556 -0.5084406 0.11633548 -0.037654016 -0.08476492 0.19820276
0.012896268 -0.33930588
00000000: 7413 8d3e 3144 413c 37b3 d8be ec50 88be
00000010: 87b7 dabd de73 2d3e 8f37 a23d 8085 273e
00000020: 1486 adbd 6bbd 6d3e 0b08 57bd d08b 2dbe
00000030: 5eb8 b3be 2e13 ce3d eea0 84be f646 80be
00000040: a755 9ebb 579e ad3e c862 76be 817e b2bd
00000050: ae86 2d3e 0331 8c3e b6c0 4a3e bd86 c23e
00000060: a104 9bbe 2641 22bd 7053 d93e 9cef b3bd
00000070: 009e aebd cf2c 2ebe 902a 5e3e daba 5b3c
00000080: 48ae adbe 801a 853e 778d 01be f13e 1bbf
00000090: ac71 c5be 67c9 823c b52d 823e 3824 d03e
000000a0: f832 963e ae92 adbe 0197 893e de37 3bbd
000000b0: 5197 adbe 29bf cabe 87c9 a23d 4191 ad3e
000000c0: 59f7 aabe cedc 203d 678d ad3e 793f 8e3d
000000d0: 4b07 debd 2cd7 ac3d 5465 0c3b 4fd5 1abe
000000e0: ec76 5a37 87bf f93d 2338 03be 7736 aebe
000000f0: b7b5 aa3e 006e 9c3c 068e adbe a0bc b43d
00000100: a103 253e 297a adbd 0ffa a5be f2b6 db3b
00000110: a291 ad3e c10c c83e 7092 96bc 7a2c 82be
00000120: 1c4b a4be 69e3 c33d 0913 023f a7d5 203f
00000130: 83a1 13be 772a 02bf 4cf6 0a3f 0575 80bd
00000140: 27e1 2dbf 6c32 053f fa5f d03d 2a29 02bf
00000150: 4c41 ee3d 193b 1abd 3b99 adbd aaf5 4a3e
00000160: de4a 533c 80b9 adbe

layers.0.bias f4 [30]
-0.7425466 -0.054941323 0.090820655 0.3306926 -0.71826744 0.84668255 0.23632012 0.4772611
-0.056889888 -0.8696764 -0.6149348 -0.0042554075 0.43047148 -0.6201111 -1.481244 0.5355596
0.0019233377 0.3264242 0.73466146 -0.7452496 -0.99877983 0.51967883 0.4172587 0.5325933
1.2312814 -1.4599475 -0.96952254 -0.541452 0.2827514 -0.9918491
00000000: 8917 3ebf 270a 61bd 2e00 ba3d 8a50 a93e
00000010: 60e0 37bf 30c0 583f e7fd 713e 915b f43e
00000020: 5f05 69bd 1da3 5ebf 5e6c 1dbf f270 8bbb
00000030: c266 dc3e 9abf 1ebf 6799 bdbf 6f1a 093f
00000040: 8118 fc3a 1321 a73e c612 3c3f aec8 3ebf
00000050: 09b0 7fbf ac09 053f efa2 d53e 0958 083f
00000060: a19a 9d3f 8fdf babf a132 78bf 999c 0abf
00000070: cbc4 903e d3e9 7dbf

layers.2.weight f4 [30, 30]
0.004160136 0.2542079 -0.1836887 -0.12224233 0.0011254676 0.06051862 0.11663324 -0.0034783138
0.002827795 -0.0075114546 0.2779384 0.0001700992 0.12357283 0.07094771 0.15314095 -0.29177064
0.1303898 0.006816102 -0.013835004 -0.0039995457 0.48748618 -0.16692917 -0.3280983 0.12671733
-0.009735144 -0.051558994 0.011255517 -0.098548725 0.007523451 0.1383759 -0.0034006834 0.24794367
-0.0759162 0.08821329 0.00034869945 -0.2183693 0.71862453 3.434008e-05 -0.00094785733 -0.008594008
-0.045481116 0.00094419316 0.0005775138 0.014883696 0.24305774 -0.052459866 -0.1504737 -0.0017116133
-0.5304574 -0.010050527 0.16805305 -0.07548616 -0.43025294 -0.0076285936 0.0011644609 0.0767758
-0.0047917007 -0.0023263863 0.010180334 0.0018046245 0.00043391416 0.025844015 0.8507681 -0.16179611
-0.0009890012 -0.03994308 0.069866136 0.00057542336 0.0056666234 -0.000834933 -0.04617502 0.0024614355
-0.64802176 0.0030946832 0.01030858 -0.019498551 -0.0018423342 0.0035228822 -0.060700014 -0.0029240872
-0.054862373 0.63439584 0.055512406 -0.6804368 -0.0067175883 -0.00738372 -0.00051559403 0.011087373
1.0263774 -0.019215234 0.009454139 -0.27575395 0.2805253 0.066087544 -0.0005279169 0.30294165
-0.80001813 0.0015530674 0.00742099 0.015156888 0.36606413 -0.0020369503 0.134162 0.01725314
-0.14681107 0.09165972 -0.1748587 0.0060545374 0.4600695 0.012605437 -0.29245096 0.27105546
0.2217319 0.14770575 -0.010141644 -0.0109375985 0.0067736483 0.027429732 -0.0268687 0.16208065
-0.0021153758 0.28796017 -0.01831788 0.07280972 0.0007078934 0.09987165 0.5649151 0.00028754902
-0.0017273593 -0.0034507783 0.420319 0.0002111957 0.043799534 -0.029537192 0.21014309 -0.0362079
0.022025453 -0.00043339923 -0.086810425 0.0018551735 0.33820793 -0.022241306 -0.39937642 0.040489994
0.005671057 -0.053243104 0.0075696935 0.04699134 -0.0031370209 0.21130331 7.3702926e-05 -0.020807156
0.0031391555 0.07484561 -0.0007838909 -0.00027148664 0.14994533 0.00043205696 0.000282537 0.0014543125
0.07397758 -0.00020690143 -0.026862785 0.019945871 0.01649413 0.2862623 -0.15515621 -0.0028122307
-0.100895464 -0.002684021 -0.031830717 0.0006477887 -0.15128519 -0.030370092 0.0006649093 -0.12019558
-0.0024328593 -0.05672084 -0.00870872 0.08349915 0.002994603 0.14042844 0.07330651 0.28577337
0.0007050448 -0.07303391 0.27925497 -0.0008811734 0.010363976 0.021138243 0.18417701 -0.0006551292
0.009562961 0.02440332 0.11793867 0.18319453 -0.13320094 -0.0028447036 0.9026339 -0.015478634
0.026686737 0.07332684 -0.30676478 0.0064235963 -0.001837091 0.007053955 -0.00067587546 0.044707224
0.005722592 0.16368838 -0.00022919368 0.018423123 -0.024085974 0.5962316 -3.7941805e-05 -0.065902025
0.22104414 -0.000942638 5.7676516e-07 -0.0015214118 0.0074769044 2.3463044e-05 0.030866444 -0.03832566
0.08037812 0.31934696 -0.12718369 0.00035161272 -0.047927853 -0.009610075 0.06868554 -0.0147465905
-0.15704614 0.030703733 0.0044546244 0.03296923 -0.009161178 -0.017845215 -0.012420404 0.03578175
-0.0028221156 0.024879845 -0.011391684 0.49026594 -0.00035204305 -0.23172106 0.106294006 -0.000565358
-0.0036066517 -0.0063316897 -0.103753105 -0.0011300821 0.031838156 0.04152908 0.13489425 -0.29108012
00000000: c051 883b 8a27 823e e418 3cbe 305a fabd
00000010: 6d84 933a 5fe2 773d 68dd ee3d 6cf4 63bb
00000020: 8752 393b a622 f6bb f14d 8e3e a85c 3239
00000030: c013 fd3d 084d 913d fbd0 1c3e f662 95be
00000040: e784 053e 9c59 df3b 36ac 62bc 9f0e 83bb
00000050: ca97 f93e 7bef 2abe 80fc a7be 30c2 013e
00000060: 2780 1fbc 862f 53bd 0f69 383c ead3 c9bd
00000070: 4887 f63b 69b2 0d3e 00de 5ebb f2e4 7d3e
00000080: f479 9bbd 2ba9 b43d a6d1 b639 349c 5fbe
00000090: c7f7 373f 6108 1038 a179 78ba e2cd 0cbc
000000a0: 684a 3abd bb83 773a 4c64 173a bfda 733c
000000b0: 21e4 783e 28e0 56bd c715 1abe 3658 e0ba
000000c0: 0ecc 07bf f7aa 24bc 1916 2c3e 7d98 9abd
000000d0: 1d4a dcbe 48f9 f9bb d3a0 983a a13c 9d3d
000000e0: b303 9dbb 4976 18bb 6acb 263c 2689 ec3a
000000f0: f97e e339 d4b6 d33c f0cb 593f e1ad 25be
00000100: 60a1 81ba 5b9b 23bd fa15 8f3d 02d8 163a
00000110: 15af b93b 68df 5aba 0522 3dbd 0950 213b
00000120: c1e4 25bf 2bd0 4a3b 51e5 283c 6dbb 9fbc
00000130: 7a7a f1ba 28e0 663b 94a0 78bd 0ba2 3fbb
00000140: 5eb7 60bd c467 223f fa60 633d 1b31 2ebf
00000150: 371f dcbb 22f3 f1bb ee28 07ba d0a7 353c
00000160: 5660 833f 4469 9dbc 88e5 1a3c 9f2f 8dbe
00000170: 03a1 8f3e e858 873d e763 0aba 2b1b 9b3e
00000180: fdcd 4cbf 4b90 cb3a c72b f33b 9954 783c
00000190: c26c bb3e 5b7e 05bb c361 093e 7556 8d3c
000001a0: a455 16be 17b8 bb3d 290e 33be 2465 c63b
000001b0: 3b8e eb3e 0987 4e3c 22bc 95be c8c7 8a3e
000001c0: b00d 633e 2d40 173e 2329 26bc 9d33 33bc
000001d0: 7bf5 dd3b 51b4 e03c bf1b dcbc 78f8 253e
000001e0: 1ea2 0abb 846f 933e 610f 96bc 431d 953d
000001f0: ec91 393a 8289 cc3d 479e 103f 2dc2 9639
00000200: 8f68 e2ba 7426 62bb 0d34 d73e 6a74 5d39
00000210: 2467 333d fbf7 f1bc c02f 573e bc4e 14bd
00000220: b96e b43c dc39 e3b9 aac9 b1bd 4b29 f33a
00000230: 9729 ad3e 6633 b6bc 117b ccbe d6d8 253d
00000240: 46d4 b93b 7115 5abd 310b f83b fe79 403d
00000250: 7a96 4dbb e55f 583e f590 9a38 c573 aabc
00000260: 4aba 4d3b a848 993d 077e 4dba 5256 8eb9
00000270: 458b 193e b485 e239 7921 9439 a19e be3a
00000280: 8f81 973d aef3 58b9 580f dcbc 8665 a33c
00000290: b31e 873c f990 923e 45e1 1ebe 674d 38bb
000002a0: 48a2 cebd 66e6 2fbb ed60 02bd 5dd0 293a
000002b0: 81ea 1abe b3ca f8bc 4f4d 2e3a 1a29 f6bd
000002c0: 9b70 1fbb 1d54 68bd 05af 0ebc 9a01 ab3d
000002d0: 1a41 443b 79cc 0f3e b921 963d e350 923e
000002e0: c1d2 383a cd92 95bd 82fa 8e3e 8cfe 66ba
000002f0: aacd 293c 1c2a ad3c e698 3c3e fabc 2bba
00000300: f7ad 1c3c 79e9 c73c d489 f13d 5997 3b3e
00000310: d465 08be 356e 3abb 0413 673f 199a 7dbc
00000320: 259e da3c 622c 963d 4610 9dbe 087d d23b
00000330: 8cca f0ba dd24 e73b 3c2d 31ba ec1e 373d
00000340: 9584 bb3b ed9d 273e b653 70b9 17ec 963c
00000350: f34f c5bc a2a2 183f b423 1fb8 a4f7 86bd
00000360: 6559 623e 5e1b 77ba 00d3 1a35 1c6a c7ba
00000370: d200 f53b 81d2 c437 a0db fc3c 5efb 1cbd
00000380: 499d a43d 7281 a33e 713c 02be a958 b839
00000390: ff4f 44bd 9373 1dbc 01ab 8c3d af9b 71bc
000003a0: b4d0 20be 6586 fb3c 19f8 913b be0a 073d
000003b0: c418 16bc 2130 92bc f37e 4bbc e28f 123d
000003c0: 3ef3 38bb d1d0 cb3c 30a4 3abc 2304 fb3e
000003d0: 6b92 b8b9 4948 6dbe acb0 d93d 8834 14ba
000003e0: 935d 6cbb 107a cfbb 827c d4bd 431f 94ba
000003f0: ba68 023d 661a 2a3d b821 0a3e 7408 95be

layers.2.bias f4 [30]
0.2896594 0.04474564 -1.0669639 0.17109525 -0.17925681 0.03160127 0.1428692 -0.58511156
-0.6370319 0.904779 0.68679374 -0.067289166 0.4585494 -0.0038429382 -0.5766961 -0.115796305
0.13326776 -0.58624685 -0.65481937 0.046051856 -0.18230063 0.2439677 0.7666634 0.1758252
-0.18846676 -0.59744364 0.3918881 -1.0409184 -0.8387801 1.4530365
00000000: 3d4e 943e 3447 373d 4692 88bf 9833 2f3e
00000010: 198f 37be 5570 013d 4e4c 123e dfc9 15bf
00000020: 8614 23bf 999f 673f b7d1 2f3f e7ce 89bd
00000030: fdc6 ea3e ced9 7bbb 5ba2 13bf 9d26 edbd
00000040: 5877 083e 4614 16bf 3ea2 27bf dfa0 3c3d
00000050: 04ad 3abe abd2 793e 0d44 443f 850b 343e
00000060: 6efd 40be 11f2 18bf 8fa5 c83e d03c 85bf
00000070: 4bba 56bf 1afd b93f

layers.4.weight f4 [30, 30]
0.43409505 -0.0075861616 0.44987103 0.08859299 0.040567942 0.2682535 -0.32642657 0.07642607
-0.21492174 -0.40859684 -0.368221 0.5860085 0.21270922 0.3952245 -0.062172007 -0.53079754
-0.23860887 0.5136963 0.20033927 0.3899311 0.12836668 0.07098934 -0.14069866 -0.105773814
-0.1568511 -0.11294798 -0.29904324 -0.32645974 0.059319586 -0.26922914 0.22971895 0.07456603
0.13762033 -0.0006293426 0.3242091 0.40597606 -0.12799126 -0.26570866 -0.04889385 -0.19123079
-0.1572864 0.18624742 -0.112029724 0.5915659 0.32362846 0.16509004 -0.30043638 -0.37256035
0.63448566 0.31285712 -0.11692672 0.26000112 0.50584406 0.05223518 -0.117289275 0.016227381
-0.30084437 -0.09250176 0.3417981 -0.44923377 0.010742052 -0.020189958 -0.17761455 0.31248775
-0.6093289 -0.060926236 0.03292317 -0.1628576 0.6659221 -0.013442919 -0.1118108 -0.50910157
0.023263339 0.12724817 -0.13019845 0.025731556 0.18775463 0.046202917 -0.43768558 -0.08817753
0.12118192 -0.1316448 0.29446575 0.071986265 -0.012219212 -0.05676929 0.09310984 0.086525105
-0.3155467 -0.2050957 -0.29592392 0.1547695 0.1656815 -0.15099049 -0.1896187 -0.80755854
-0.20589885 0.107566185 -0.25336543 -0.18140095 -0.20926389 -0.20356531 -0.3608486 0.21605644
0.08005519 0.019604472 -0.2703841 -0.2045424 0.18523237 0.19051872 -0.46706197 0.104303524
-0.5291474 0.03735682 -0.04429675 0.32240692 -0.23427528 -0.11196838 -0.03975382 -0.3344503
0.02744334 0.35434484 -0.31732744 -0.33935654 -0.08875634 0.16936515 -0.20437832 -0.54782027
0.034115776 -0.11444128 -0.06235796 -0.09508838 -0.032210067 -0.34836203 -0.2117552 0.2058204
0.091018975 0.16265728 0.08323291 -0.28537977 -0.1037181 0.055233266 0.098299176 0.080534525
0.31422853 -0.29358923 0.014866822 0.23636554 0.24699163 -0.102644086 0.16566266 0.47639832
0.94266194 0.21630476 0.15288049 -0.45795143 -0.1634003 0.14793245 -0.9280167 0.2399623
-0.5459674 0.27449262 -0.7706074 -0.09255677 -0.2020484 -0.1924733 -0.5522203 0.41245142
-0.30273715 0.035412166 0.48059613 -0.19817476 -0.8587939 -0.08592612 -0.45494577 0.14006269
-0.42968604 -0.7047564 -0.08306952 0.04143357 0.0101168845 0.2907355 -0.0027418034 -0.09984318
0.20775998 0.114988394 0.6509124 -0.07355147 0.032452192 0.0972172 -0.35587096 -0.19465105
0.035610918 0.37110317 -0.025804926 -0.06775579 0.04822807 0.22510822 0.19132027 -0.32690278
0.77374583 0.4506153 0.20845616 0.04008148 0.005005967 0.04854409 0.5003046 -0.036178343
0.002719664 0.9607011 -0.19108388 -0.26100343 0.22110528 -0.056133967 -0.056359846 0.17048018
0.075686805 0.63528544 0.09460613 -0.1533713 0.016268753 -0.06978623 -0.059057403 -0.14001685
0.15604341 -0.23217936 0.07756571 0.08573777 -0.28439292 0.20716725 -0.49542627 0.00919091
-0.5636652 0.5142279 -0.14067592 0.11146846 0.5209874 -0.25459325 -0.5419478 0.4391355
0.38849324 0.5517291 -0.18376458 -0.1565921 -0.08681312 -0.47056106 -0.23327424 -0.24575058
-0.02518094 -0.19331868 -0.08115126 0.3301257 0.2819178 -0.21328449 -0.030811107 -0.050023694
00000000: b541 de3e 5695 f8bb 7f55 e63e 3e70 b53d
00000010: 922a 263d 8658 893e 6221 a7be 4585 9c3d
00000020: 7214 5cbe 9b33 d1be 7787 bcbe a704 163f
00000030: 72d0 593e de5a ca3e 13a8 7ebd 59e2 07bf
00000040: e255 74be 9a81 033f bd25 4d3e 0da5 c73e
00000050: 8e72 033e dc62 913d 4f13 10be f19f d8bd
00000060: 939d 20be 4551 e7bd 321c 99be bb25 a7be
00000070: 18f9 723d 67d8 89be 723b 6b3e 13b6 983d
00000080: 58ec 0c3e 78fa 24ba bcfe a53e 18dc cf3e
00000090: 2410 03be f70a 88be eb44 48bd 01d2 43be
000000a0: b00f 21be a5b7 3e3e d76f e5bd dd70 173f
000000b0: a1b2 a53e 5d0d 293e ccd2 99be 3bc0 bebe
000000c0: a76d 223f cf2e a03e 4777 efbd de1e 853e
000000d0: ff7e 013f 8ef4 553d 5c35 f0bd 49ef 843c
000000e0: 4608 9abe 9071 bdbd 2900 af3e f801 e6be
000000f0: 6fff 2f3c 6965 a5bc 97e0 35be 65fe 9f3e
00000100: fbfc 1bbf ca8d 79bd 72da 063d 25c4 26be
00000110: df79 2a3f b03f 5cbc 10fd e4bd 7b54 02bf
00000120: c292 be3c 584d 023e be52 05be fcca d23c
00000130: c042 403e 453f 3d3d 5318 e0be 6c96 b4bd
00000140: 3a2e f83d e5cd 06be 37c4 963e 896d 933d
00000150: 1733 48bc ea86 68bd 5fb0 be3d 1334 b13d
00000160: 568f a1be 9b04 52be 5783 97be e57b 1e3e
00000170: 69a8 293e 409d 1abe 682b 42be 28bc 4ebf
00000180: 26d7 52be a94b dc3d 1db9 81be 2cc1 39be
00000190: 4649 56be 6d73 50be 26c1 b8be e63d 5d3e
000001a0: faf3 a33d 8f99 a03c c96f 8abe 9073 51be
000001b0: 8ead 3d3e 5717 433e bf22 efbe 169d d53d
000001c0: 3476 07bf 7703 193d 8270 35bd 8512 a53e
000001d0: dce5 6fbe ae4f e5bd e7d4 22bd 123d abbe
000001e0: dbd0 e03c b06c b53e be78 a2be 24c0 adbe
000001f0: e2c5 b5bd 0f6e 2d3e 8d48 51be f33d 0cbf
00000200: fcbc 0b3d 3160 eabd 0f6b 7fbd b2bd c2bd
00000210: b4ee 03bd 825c b2be 5bd6 58be 95c2 523e
00000220: 2868 ba3d a18f 263e 0476 aa3d 4c1d 92be
00000230: 286a d4bd 473c 623d 1451 c93d 49ef a43d
00000240: 90e2 a03e 5451 96be f993 733c cf09 723e
00000250: 60eb 7c3e 1037 d2bd 79a3 293e 7bea f33e
00000260: 4b52 713f ff7e 5d3e b48c 1c3e 9c78 eabe
00000270: 6952 27be 9b7b 173e 8192 6dbf adb8 753e
00000280: 85c4 0bbf 4c8a 8c3e 8746 45bf 678e bdbd
00000290: c7e5 4ebe b917 45be 4f5e 0dbf d52c d33e
000002a0: 5d00 9bbe 590c 113d b210 f63e 53ee 4abe
000002b0: ebd9 5bbf 09fa afbd a7ee e8be 986c 0f3e
000002c0: cfff dbbe ea6a 34bf 5a20 aabd 3fb6 293d
000002d0: 4ac1 253c 49db 943e d4af 33bb 957a ccbd
000002e0: 08bf 543e 097f eb3d 32a2 263f 27a2 96bd
000002f0: 97ec 043d d019 c73d b834 b6be 9b52 47be
00000300: c1dc 113d 3c01 be3e da64 d3bc 8cc3 8abd
00000310: cc8a 453d c582 663e 76e9 433e cd5f a7be
00000320: 3514 463f 0cb7 e63e 8875 553e 7a2c 243d
00000330: 1809 a43b 2bd6 463d f613 003f be2f 14bd
00000340: 643c 323b 82f0 753f 7eab 43be 3ea2 85be
00000350: 6c69 623e bbec 65bd 95d9 66bd 5b92 2e3e
00000360: af01 9b3d 11a2 223f dcc0 c13d 5e0d 1dbe
00000370: 0c46 853c 15ec 8ebd 2de6 71bd 9460 0fbe
00000380: d8c9 1f3e 6dc0 6dbe c5da 9e3d 4997 af3d
00000390: f39b 91be a723 543e 83a8 fdbe 7895 163c
000003a0: 5d4c 10bf 71a4 033f 590d 10be 9349 e43d
000003b0: 6e5f 053f 0c5a 82be 17bd 0abf 5ed6 e03e
000003c0: 96e8 c63e 1e3e 0d3f c82c 3cbe ae59 20be
000003d0: 14cb b1bd 61ed f0be 71df 6ebe 0aa6 7bbe
000003e0: 4248 cebc 55f5 45be a232 a6bd 3c06 a93e
000003f0: 8857 903e 4067 5abe 9367 fcbc a5e5 4cbd

layers.4.bias f4 [30]
-0.32793942 0.39841717 -0.13787849 -0.25039315 0.073291205 -0.0041344445 0.49501836 -0.14602953
-0.7571524 0.10294642 0.2915944 0.3940144 -0.12770575 0.2299599 -0.5286662 -0.07400021
0.03838024 -1.0960193 -0.64531463 -0.3256239 -0.541325 0.3431141 0.55137056 0.004668457
0.2927402 0.050667714 0.3803014 0.70576674 0.23374033 -0.44738445
00000000: ade7 a7be 56fd cb3e 0530 0dbe 8833 80be
00000010: b319 963d 3c7a 87bb 0c73 fd3e c488 15be
00000020: bdd4 41bf 93d5 d23d dc4b 953e 41bc c93e
00000030: 4cc5 02be 9c7a 6b3e ab56 07bf 6c8d 97bd
00000040: 9934 1d3d 5c4a 8cbf 5733 25bf 2db8 a6be
00000050: 4694 0abf a7ac af3e 9f26 0d3f dbf9 983b
00000060: 0be2 953e f388 4f3d ddb6 c23e 21ad 343f
00000070: a059 6f3e 930f e5be

layers.6.weight f4 [30, 30]
-0.070584625 -0.028063096 0.43210348 0.17860542 -0.14759673 -0.022412278 0.040186733 -0.04970158
-0.02151517 0.47728574 0.083816476 -0.18498085 -0.3910073 -0.15964489 0.13943578 0.27996418
-0.09934896 0.1743569 -0.91031504 0.40297222 0.22272444 0.12179059 0.2534425 0.17384604
0.257256 -0.23533277 0.264671 0.10174838 -0.23888204 -0.049809683 -0.25465915 0.28668
-0.13241673 0.08447161 -0.16645366 0.16789222 0.022703772 0.0038894154 -0.030981386 -0.1424774
0.0212186 -0.124048494 -0.20702307 0.032654356 0.12619647 -0.09322984 0.16229597 -0.2036734
0.22277349 0.2533385 -0.078402616 -0.16288897 0.03989963 -0.013837973 -0.1356361 -0.20194021
-0.33119586 -0.08261952 0.2586263 0.23248842 0.106742874 0.048055705 0.110432014 0.30027702
0.66162086 -0.3203078 0.08685864 -0.10515037 -0.11844732 -0.07060529 -0.1395328 -0.24488707
-0.090438776 -0.5000348 -0.073820874 0.30907688 0.0069889748 0.55686367 0.17668189 -0.06575103
0.3183735 -0.09001159 -0.5544229 0.22455786 -0.045472395 0.47536787 -0.29724035 -0.054126598
-0.15951054 0.2693598 -0.6384175 0.4908745 -0.28944054 -0.30001074 0.2287918 -0.72751933
0.20712021 -0.015575783 -0.11680111 -0.57273996 -0.29025236 -0.13498157 -0.37041926 0.004808527
0.32352605 0.1787681 0.21188726 0.6745 -0.38010892 -0.099914566 -0.35062274 -0.418207
0.2483594 -0.57071286 -0.1818182 -0.18369192 0.62770975 0.2552698 -0.49744788 -0.13751437
-0.051710065 0.26090407 0.114587106 0.007969625 0.10998643 0.13548097 -0.0909331 -0.100732155
0.053813968 0.18180223 0.11259673 -0.16660012 0.10307704 0.23331958 -0.29363218 -0.24276024
-0.44040254 -0.050323308 -0.013066371 -0.069282554 -0.27893323 0.34386465 0.012431089 -0.23358995
0.22631937 0.12333491 0.47853905 0.308405 -0.025301812 -0.027294425 -0.003267053 -0.13343436
-0.05494697 -0.10022717 -0.25282586 0.601457 -0.14663164 0.31152633 0.5879492 -0.14419693
0.0043520774 0.014246205 -0.46490017 0.40001595 -0.36855236 -0.044262826 -0.14299561 -0.59598637
0.25807625 0.096896216 0.1290576 0.6766109 0.7942383 -0.25013617 0.59666723 -0.17930731
0.5032238 -0.5769334 0.14589243 0.033334218 -0.15397406 0.0038316355 -0.32221988 0.07780624
-0.37743497 -0.42407644 0.3931365 0.26125845 -0.31867367 -0.052773956 0.021572828 0.15263917
0.4682349 -0.37776828 -0.3446152 -0.14944479 -0.18088257 -0.07249637 -0.2756304 0.11433813
-0.058666248 0.2028695 0.05705389 -0.0011746513 0.13228919 0.4264631 0.35116637 0.26569277
0.19121319 -0.15585615 -0.4610281 0.09717541 0.3282067 -0.4960405 0.25520512 -0.0070489016
-0.13503304 0.16079825 -0.2236058 -0.0546261 -0.057739396 0.5199672 0.085729465 0.036847297
-0.96512574 1.0173823 -0.93791896 1.3535876 -0.80629694 0.05172334 -0.19620301 -0.31957996
0.9844239 -0.86232835 -0.16860166 0.44515184 0.8240309 -0.46844 -0.44656107 -0.13605663
0.03933182 -0.064473204 0.07764006 -0.1230936 0.010601896 -0.010431925 0.021121128 -0.15910985
0.32268354 -0.29917932 -0.112254076 -0.0987017 -0.09571036 0.11826536 -0.3490478 -0.11020677
00000000: ac8e 90bd 94e4 e5bc ab3c dd3e 57e4 363e
00000010: 9923 17be f499 b7bc d89a 243d e293 4bbd
00000020: 9540 b0bc cc5e f43e f9a7 ab3d 9f6b 3dbe
00000030: 1c32 c8be f379 23be 41c8 0e3e 7757 8f3e
00000040: 7877 cbbd 9d8a 323e 680a 69bf 6052 ce3e
00000050: e011 643e 586d f93d 37c3 813e b204 323e
00000060: 0fb7 833e 13fb 70be f582 873e 7461 d03d
00000070: 7e9d 74be 3d05 4cbd af62 82be b9c7 923e
00000080: 4098 07be 74ff ac3d d472 2abe f0eb 2b3e
00000090: 43fd b93c 90e5 7e3b adcc fdbc 98e5 11be
000000a0: a1d2 ad3c 230d febd dbfd 53be 93c0 053d
000000b0: a639 013e 49ef bebd ea30 263e c38f 50be
000000c0: bc1e 643e 95b5 813e 8d91 a0bd 5ecc 26be
000000d0: cb6d 233d aab8 62bc 31e4 0abe 6ac9 4ebe
000000e0: 8192 a9be 6c34 a9bd ab6a 843e 7211 6e3e
000000f0: 029c da3d 0fd6 443d 2e2a e23d e9bd 993e
00000100: fc5f 293f 62ff a3be f1e2 b13d 1459 d7bd
00000110: 8294 f2bd 8299 90bd b0e1 0ebe adc3 7abe
00000120: f737 b9bd 4802 00bf 662f 97bd 533f 9e3e
00000130: c503 e53b 9e8e 0e3f 19ec 343e 7aa8 86bd
00000140: da01 a33e ff57 b8bd a9ee 0dbf 7ff2 653e
00000150: 4341 3abd 6b63 f33e e32f 98be dab3 5dbd
00000160: bb56 23be 87e9 893e 546f 23bf e753 fb3e
00000170: 8d31 94be 029b 99be 6648 6a3e b53e 3abf
00000180: 5217 543e 9231 7fbc 6c35 efbd 169f 12bf
00000190: f59b 94be 9c38 0abe 98a7 bdbe d990 9d3b
000001a0: 35a5 a53e fc0e 373e f9f8 583e 08ac 2c3f
000001b0: a39d c2be 02a0 ccbd d384 b3be 3a1f d6be
000001c0: ed51 7e3e 3d1a 12bf 8d2e 3abe bc19 3cbe
000001d0: 96b1 203f b9b2 823e 7db1 febe 91d0 0cbe
000001e0: efcd 53bd 3895 853e a5ac ea3d 0893 023c
000001f0: 9140 e13d 86bb 0a3e 223b babd a94c cebd
00000200: 096c 5c3d 5d2a 3a3e 1d99 e63d 3999 2abe
00000210: 0e1a d33d 54eb 6e3e f556 96be 2496 78be
00000220: 717c e1be d01f 4ebd 5514 56bc 03e4 8dbd
00000230: 56d0 8ebe 070f b03e c4ab 4b3c 3432 6fbe
00000240: 44c0 673e 0397 fc3d 1203 f53e 43e7 9d3e
00000250: bf45 cfbc 8f98 dfbc 0e1c 56bb 04a3 08be
00000260: 1310 61bd e743 cdbd 6472 81be 16f9 193f
00000270: 9b26 16be 6180 9f3e d783 163f 5ca8 13be
00000280: df9b 8e3b ea68 693c 6507 eebe e4ce cc3e
00000290: e5b2 bcbe f04c 35bd 716d 12be 9092 18bf
000002a0: 9222 843e 8671 c63d ad27 043e 5f36 2d3f
000002b0: 3453 4b3f d911 80be 2fbf 183f 569c 37be
000002c0: 46d3 003f e8b1 13bf d364 153e 7689 083d
000002d0: 60ab 1dbe 2d1c 7b3b 01fa a4be e158 9f3d
000002e0: 283f c1be 8c20 d9be 3049 c93e abc3 853e
000002f0: 3229 a3be 8129 58bd 80b9 b03c 714d 1c3e
00000300: 7cbc ef3e d86a c1be 6771 b0be 0e08 19be
00000310: 4839 39be fa78 94bd 6e1f 8dbe 1c2a ea3d
00000320: 054c 70bd 06bd 4f3e 57b1 693d c2f6 99ba
00000330: d176 073e 5f59 da3e 14cc b33e e208 883e
00000340: 64cd 433e c198 1fbe e00b ecbe e703 c73d
00000350: b50a a83e 05f9 fdbe 3faa 823e 79fa e6bb
00000360: 1a46 0abe 4ca8 243e ebf8 64be 9ebf 5fbd
00000370: 2580 6cbd 921c 053f ee92 af3d 31ed 163d
00000380: 7b12 77bf 9539 823f 751b 70bf 5c42 ad3f
00000390: 7a69 4ebf dadb 533d 71e9 48be fc9f a3be
000003a0: 3403 7c3f 8dc1 5cbf eaa5 2cbe f1ea e33e
000003b0: b0f3 523f 5ed7 efbe a7a3 e4be 6e52 0bbe
000003c0: 671a 213d 870a 84bd c001 9f3d 7f18 fcbd
000003d0: 93b3 2d3c aaea 2abc 3706 ad3c b1ed 22be
000003e0: c736 a53e 082e 99be 77e5 e5bd 1e24 cabd
000003f0: cb03 c4bd 1c35 f23d 65b6 b2be 16b4 e1bd

layers.6.bias f4 [30]
-0.1687343 -0.06780278 0.21647948 0.2994287 0.2395586 0.20310807 -0.111525126 -0.02586771
0.07876078 -0.3294945 -0.022350047 0.22924654 -0.31440952 0.34646517 4.6928322e-05 0.5877589
0.06934238 0.04411132 0.43202055 -0.12907426 0.21510242 0.08665811 0.072843954 -0.059460178
0.1671583 0.008157875 0.30958015 -0.28659603 0.3098432 -0.14192654
00000000: afc8 2cbe 2fdc 8abd ccac 5d3e b84e 993e
00000010: da4e 753e 90fb 4f3e 4967 e4bd 85e8 d3bc
00000020: 554d a13d 81b3 a8be 7217 b7bc 9bbf 6a3e
00000030: 49fa a0be e263 b13e e7d4 4438 5e77 163f
00000040: 6103 8e3d 12ae 343d cc31 dd3e 0b2c 04be
00000050: cf43 5c3e cf79 b13d 362f 953d 848c 73bd
00000060: 8c2b 2b3e 9ca8 053c 4a81 9e3e b7bc 92be
00000070: c5a3 9e3e 3155 11be

layers.8.weight f4 [3, 30]
-0.3301187 -0.008383905 -0.9469326 0.55921733 0.11029548 1.224308 0.36257207 1.6800475
0.13013445 -1.4418364 0.018145481 -0.2119046 0.5211653 -0.90795934 1.3264755 -0.7842246
-0.2323991 0.34619167 -0.49972928 -0.6194104 -0.46027395 -0.11524857 -0.09057231 0.7041618
-0.41356218 0.00026670282 -0.026522517 -1.1243131 -0.046280526 -0.14722542 -0.064219385 -0.08188209
0.22311503 0.7074857 -0.1952134 0.035810966 0.5256642 0.5234829 -0.16332133 0.9482098
0.28884238 0.32460412 0.20892517 0.11793057 0.961825 -0.038078632 -0.097872816 0.13819624
1.0600389 -0.4345259 0.0964004 0.005730379 -0.2392402 -0.35599527 -0.3878356 0.5085043
-1.2240231 -0.76550746 0.36640185 -0.04371779 0.07513601 -0.25426722 -0.0037096655 -1.0002469
0.5674358 -0.46879348 -0.2073098 -0.7090593 -0.15709889 -0.0350571 0.017330252 -0.1304643
0.28625765 -0.27245238 0.29363605 0.5744812 0.11999976 0.29849115 0.5247649 0.20313828
0.43096447 -0.33881217 0.29263183 -0.0072903726 -0.024926966 0.12891875 0.31011006 -0.60059303
-0.030665591 0.108841196
00000000: 5105 a9be a55c 09bc 2d6a 72bf de28 0f3f
00000010: 99e2 e13d 20b6 9c3f 0ca3 b93e cc0b d73f
00000020: f741 053e 188e b8bf d5a5 943c 85fd 58be
00000030: 176b 053f 0670 68bf f3c9 a93f f2c2 48bf
00000040: 08fa 6dbe 0940 b13e 84dc ffbe ae91 1ebf
00000050: 07a9 ebbe 7107 ecbd fa7d b9bd f343 343f
00000060: 6cbe d3be 3fd4 8b39 c045 d9bc 7ee9 8fbf
00000070: a690 3dbd 43c2 16be 7485 83bd ccb1 a7bd
00000080: 4478 643e c81d 353f 06e6 47be 85ae 123d
00000090: ee91 063f fa02 063f b53d 27be e1bd 723f
000000a0: 26e3 933e 8332 a63e 7bf0 553e 9585 f13d
000000b0: 2a3a 763f 57f8 1bbd 8b71 c8bd 5183 0d3e
000000c0: 5baf 873f 2e7a debe 936d c53d e7c5 bb3b
000000d0: 62fb 74be 0345 b6be 6392 c6be 562d 023f
000000e0: caac 9cbf 4cf8 43bf 0699 bb3e 6d11 33bd
000000f0: e9e0 993d 502f 82be dc1d 73bb 1708 80bf
00000100: 7943 113f b305 f0be 0549 54be e984 35bf
00000110: 88de 20be 0998 0fbd 2cf8 8d3c 6f98 05be
00000120: 5d90 923e e17e 8bbe 7757 963e 3311 133f
00000130: 6fc2 f53d d5d3 983e fe56 063f 7b03 503e
00000140: 60a7 dc3e ca78 adbe d7d3 953e 14e4 eebb
00000150: a333 ccbc 4703 043e bfc6 9e3e 77c0 19bf
00000160: 6836 fbbc 22e8 de3d

layers.8.bias f4 [3]
-0.93666404 0.10697195 0.07531877
00000000: 37c9 6fbf 1c14 db3d ba40 9a3d
