data/model2_5l_30h_50e_0.005d.pt (torch, 15571 bytes, 10 tensors)

layers.0.weight f4 [30, 3]
0	0x3d4aabd5	0.049480278
1	0x3e3b4240	0.18286991
2	0xbef57577	-0.4794118
3	0xbea8e93b	-0.3299044
4	0x3dc41cf6	0.09575836
5	0x3e2d44ce	0.16920778
6	0xbd195e77	-0.037443604
7	0x3e2b08de	0.16702601
8	0x39002282	0.00012219886
9	0x3e563ab0	0.20920825
10	0xbd816b77	-0.063193254
11	0xbe2dc55f	-0.16969822
12	0xbe887f39	-0.26659563
13	0xbe40f54c	-0.18843573
14	0xbe7c5060	-0.24640036
15	0xbcf0bbcb	-0.029386422
16	0x3de0d695	0.10978428
17	0x3eb36ec4	0.35045445
18	0xbe5e5e96	-0.21715769
19	0xbdf011c9	-0.11722142
20	0x3e2db04d	0.16961785
21	0x3e4f11c6	0.20221624
22	0xbd1f0f25	-0.038832802
23	0x3ed4ba77	0.4154851
24	0xbdd34ce8	-0.10317403
25	0x3dd9a5a9	0.106273
26	0x3edde63c	0.43339717
27	0xbe85084a	-0.25982887
28	0xbe4e0e0e	-0.20122549
29	0xbe7ce0ba	-0.24695101
30	0xbdec81e3	-0.115482114
31	0x3eb1436c	0.3462175
32	0xbefbe598	-0.49198604
33	0xbdceadd1	-0.100917466
34	0xbe8d220e	-0.27565044
35	0xbf14ece9	-0.58173996
36	0xbec2010b	-0.3789142
37	0x3e85b992	0.2611814
38	0x3ead8b5d	0.33895388
39	0x3ed91cd6	0.42404813
40	0x3e871aab	0.26387534
41	0xbeaded7e	-0.33970255
42	0x3e22e4b5	0.15907557
43	0xbe175de9	-0.14781918
44	0xbeae9ffc	-0.34106433
45	0xbeb54145	-0.3540136
46	0x3dc23e84	0.0948458
47	0x3ead9551	0.33902982
48	0xbeca3270	-0.39491606
49	0x3c8ba65c	0.0170471
50	0x3eadd7b7	0.3395364
51	0x3e93e0d0	0.28882456
52	0x3e277d37	0.1635636
53	0x3d9a93b6	0.07547705
54	0x3df3138c	0.11868963
55	0xbe0ddc5b	-0.1385359
56	0x3df7d8ae	0.12101875
57	0xbeaeb48d	-0.34122124
58	0xbe9b0cac	-0.30283105
59	0xbea50af9	-0.32234934
60	0x3e9268a4	0.2859546
61	0x3c9c9a21	0.019116463
62	0xbead8c91	-0.33896306
63	0xbbeb293e	-0.0071765473
64	0x3e379dbc	0.17931265
65	0x39291354	0.00016124296
66	0xbe58fdde	-0.21190593
67	0x3e229479	0.1587695
68	0x3eadf9a0	0.3397951
69	0x3e94f75f	0.2909498
70	0xbe56e029	-0.20983948
71	0xbe762380	-0.2403698
72	0x3e368d5d	0.17827363
73	0x3e887f73	0.26659736
74	0x3f23a723	0.63926905
75	0x3f0e5900	0.55604553
76	0xbdbc1291	-0.09183229
77	0xbf025d77	-0.50923866
78	0x3d2e7695	0.042593557
79	0xbe3d7f60	-0.18505621
80	0xbf19101d	-0.5979021
81	0x3f04a07b	0.51807374
82	0x3e7e2d50	0.24821973
83	0xbf026f26	-0.5095085
84	0x3d4ab890	0.04949242
85	0xbc3de3e1	-0.011589975
86	0x37bdadf8	2.2611566e-05
87	0xbe864a04	-0.26228344
88	0x3d1e6bfb	0.038677197
89	0xbed3dc77	-0.4137914

layers.0.bias f4 [30]
0	0x3e34dbb3	0.17661934
1	0xbd8ce34d	-0.06879292
2	0x3db1bc22	0.086784616
3	0x3f041f68	0.5161042
4	0xbf3b28df	-0.7310924
5	0xbe153406	-0.14570627
6	0x3cbf0904	0.023319729
7	0x3e38b010	0.18035913
8	0xbecd7ea6	-0.40135688
9	0xbe816b54	-0.25277197
10	0x3efe7bf1	0.49703935
11	0x3e95f446	0.29287928
12	0xbf0a3e1c	-0.5400102
13	0xbf1e5fab	-0.6186473
14	0xbf334ec0	-0.7004204
15	0x3df07db9	0.1174273
16	0xbdbdb47b	-0.092629395
17	0xbeb81f74	-0.35961497
18	0xbc389e26	-0.011268174
19	0x3d466924	0.048440114
20	0xbef5246b	-0.47879347
21	0x3eb1282d	0.34600964
22	0xbefd9578	-0.49528098
23	0x3f016934	0.5055115
24	0x3ee73936	0.45160836
25	0xbf610478	-0.87897444
26	0xbe3602dd	-0.1777453
27	0xbe409dac	-0.18810147
28	0xbdadffa1	-0.08496023
29	0x3d9c037f	0.07617854

layers.2.weight f4 [30, 30]
0	0x3bc12e5c	0.005895419
1	0xbdbc7fea	-0.09204085
2	0x3e4d4bc5	0.20048435
3	0xbd6d8834	-0.05799122
4	0xbdc01b94	-0.0938026
5	0x3b32eed8	0.0027303007
6	0x3e0a6d11	0.13518168
7	0xb9036c68	-0.00012533518
8	0xbcdd1b8c	-0.026990674
9	0xbdc17372	-0.094458476
10	0xbccf2126	-0.025284361
11	0x3bcbda4b	0.006221091
12	0xbd350202	-0.044191368
13	0x3c8a0028	0.016845778
14	0x3dc37ad2	0.095449105
15	0x3c99ea93	0.018788612
16	0x3d65ef06	0.056136154
17	0x3db7ed7f	0.08980846
18	0xbc945988	-0.018109098
19	0xbba8f768	-0.0051564462
20	0x3e05c343	0.13062768
21	0x3f09a1a8	0.5376229
22	0x3d5194e3	0.05116738
23	0xbc9a9aa9	-0.018872576
24	0xbc464ff2	-0.012104021
25	0xbd9adc40	-0.075615406
26	0x3d076736	0.033057414
27	0xbccf327d	-0.02529263
28	0xbe80f9c4	-0.25190556
29	0x3ce95dae	0.028487053
30	0xbc857f6f	-0.016296117
31	0xbe26fba7	-0.16306935
32	0xbe666e9a	-0.22503129
33	0x3e51d21f	0.20490311
34	0xbd05d4e9	-0.03267375
35	0x3d220e70	0.03956455
36	0x3dee60ea	0.11639579
37	0x3c69e3ce	0.014275504
38	0xbc4020a9	-0.011726537
39	0xbcb3a2e8	-0.021928266
40	0xbbc9e222	-0.0061609903
41	0xbb7e082e	-0.00387622
42	0x3ce92f7b	0.028465023
43	0x3cb84725	0.022494862
44	0xbcc7f864	-0.024410434
45	0x3c4b0e04	0.012393478
46	0x3bf14a76	0.0073636128
47	0x3cd6d15d	0.026222879
48	0x3c3deb98	0.011591814
49	0x3cb0530a	0.021523971
50	0x3e3309dc	0.1748423
51	0xbea0035d	-0.31252566
52	0x3d443a84	0.047907367
53	0x3cf9fafb	0.030515185
54	0xbb0d17a0	-0.0021528974
55	0x3c844d24	0.016150065
56	0xbc26c2fc	-0.010178324
57	0xbd81b9ba	-0.06334253
58	0x3ec6e687	0.38847753
59	0x3cb86360	0.022508323
60	0x3cb228a1	0.021747889
61	0x397224e1	0.00023092657
62	0x3efc7fe3	0.4931632
63	0xbd175816	-0.03694924
64	0x3d57b653	0.052664112
65	0xba384bfe	-0.00070303667
66	0x3d140f68	0.036147505
67	0x3d1faa0b	0.038980525
68	0x3c83b258	0.016076252
69	0x3d649aa6	0.055811547
70	0x3c558379	0.013031834
71	0xbc4f3c8c	-0.012648713
72	0xbde06dcf	-0.10958444
73	0xba3c7154	-0.0007188518
74	0x3d951e47	0.072811656
75	0xbe11f599	-0.14253844
76	0xbc9117f2	-0.017711613
77	0xbd1c6261	-0.03817976
78	0xbb4eb54e	-0.0031541171
79	0xbb9bd31a	-0.00475539
80	0xbdf4762e	-0.119366035
81	0x3f0cfa87	0.55069774
82	0x3c48aca2	0.01224819
83	0xbc87039e	-0.016481217
84	0xbc4eb16f	-0.012615546
85	0xbc8f39ea	-0.01748367
86	0xbc77e975	-0.015131344
87	0x39b063cd	0.00033643693
88	0x3dc10d8e	0.094264135
89	0x3c2c4452	0.010514336
90	0xbba8818a	-0.0051423954
91	0x3cc05617	0.02347855
92	0x3f45b837	0.77234215
93	0xbdeb31c2	-0.114841
94	0x3c7aba42	0.015303196
95	0xbc3323ea	-0.010933856
96	0xbeb82ca4	-0.35971558
97	0xbc30f914	-0.010801572
98	0xbb4e396d	-0.0031467334
99	0x3c98ed2a	0.018667776
100	0x3bd42dd2	0.006475189
101	0xbc007b69	-0.007841923
102	0x3bba5bbf	0.0056872065
103	0x3e2d503a	0.16925135
104	0x3c0d0e07	0.008609301
105	0x3c0c49be	0.008562503
106	0xbe914abc	-0.2837733
107	0xbbc86545	-0.006115588
108	0xbc0e52e3	-0.008686754
109	0x3ac7bff8	0.0015239706
110	0x3e0b8932	0.13626555
111	0x3ed4690b	0.4148639
112	0xbdcd3adb	-0.100209914
113	0xbc4f9703	-0.012670281
114	0x3bcbe4fc	0.0062223654
115	0x3c567233	0.013088751
116	0xbb9949ad	-0.0046779723
117	0x3d5cee8e	0.05393844
118	0x3ebb046e	0.36526817
119	0xbb88589f	-0.004160955
120	0xbaf08f31	-0.0018353221
121	0x3d4559a6	0.0481812
122	0xbe2442ff	-0.16041182
123	0xbe7df725	-0.2480131
124	0x3ceeb5d4	0.029139437
125	0x3b44c2fc	0.0030023446
126	0x3ef34f3c	0.4752139
127	0x3be3b54f	0.006949104
128	0x3ccb33ab	0.02480491
129	0x3c8bafd0	0.017051607
130	0x3a3430c2	0.00068737206
131	0x3c260bb2	0.010134624
132	0x3da4c38a	0.080451086
133	0xbdef949b	-0.11698266
134	0xbce79c09	-0.028272646
135	0x3ca01777	0.019542439
136	0x3d20e574	0.039281324
137	0xbc8b90b0	-0.017036766
138	0xbc624a48	-0.013811655
139	0x3ba28a97	0.004960369
140	0x3d1796f9	0.037009213
141	0x3d55bb1d	0.0521804
142	0xbc86c57a	-0.016451586
143	0x3c03f90d	0.008054984
144	0xb9b27454	-0.00034037477
145	0xbd40e43f	-0.047092672
146	0x3bb13190	0.0054075196
147	0xbd83f9c0	-0.064441204
148	0x3e7db100	0.24774551
149	0xbcb2aa44	-0.021809705
150	0xbca1f2e2	-0.019769136
151	0xbd6c0f09	-0.057631526
152	0xbdfc4b01	-0.12318993
153	0x3e00e6dd	0.12588067
154	0xbba32239	-0.004978445
155	0xbc9a0eb6	-0.018805843
156	0x3e859ab3	0.2609459
157	0xbc0233c7	-0.007946915
158	0xbb3d1780	-0.0028853118
159	0xbbbaead0	-0.0057042614
160	0x3c0cb2e5	0.008587574
161	0x3c98f0a6	0.018669438
162	0xbe44d12a	-0.19220415
163	0x3e1298c5	0.1431609
164	0xbc2a039f	-0.01037684
165	0x3e27f4fd	0.1640205
166	0x3d84c1cd	0.06482277
167	0x3ce733af	0.028222887
168	0xbd03ed54	-0.032208756
169	0xbc641f29	-0.013923445
170	0xbd58e64d	-0.052954007
171	0x3daa9f38	0.0833115
172	0xbd557af9	-0.05211923
173	0xbc820470	-0.015871257
174	0x3cfd13e6	0.030893277
175	0x3d2f6731	0.04282302
176	0x3d3556f4	0.044272378
177	0xbbd2e531	-0.006436013
178	0x3db7d79a	0.089766696
179	0xbc876561	-0.016527833
180	0xbbf99ba6	-0.0076174317
181	0x3c893a88	0.016751543
182	0xbddc8bb8	-0.10768837
183	0xbe8bf105	-0.2733232
184	0x3c5bf99d	0.013426212
185	0xbd8da595	-0.06916348
186	0x3dd47f6b	0.103758655
187	0x3c387854	0.011259157
188	0xbbf106ad	-0.007355532
189	0xbc683e48	-0.014175005
190	0xbd040e33	-0.032240104
191	0xbc1928c3	-0.009348097
192	0x3d7080af	0.058716472
193	0xbd1f19f4	-0.03884311
194	0x3d56c666	0.0524353
195	0x3ddac78d	0.106825925
196	0xbe17c28b	-0.14820306
197	0xbc6ed901	-0.014578105
198	0x3cae7aaf	0.021298734
199	0x3b6e4101	0.0036354663
200	0x3d66c364	0.056338683
201	0xbe605114	-0.21905929
202	0xbd8c4912	-0.068498746
203	0x3d6966df	0.05698287
204	0x3b622477	0.0034506598
205	0x3bfd2dc5	0.0077264034
206	0xbbdf2fa3	-0.0068110987
207	0xbcea7aec	-0.028623067
208	0xbe1fd93f	-0.15610217
209	0xbceede20	-0.029158652
210	0xbb2d4cf1	-0.0026443566
211	0xbdba3f9f	-0.09094166
212	0x3f4379bf	0.76357645
213	0x3f34390a	0.70399535
214	0x3a842e39	0.0010084576
215	0x3bc35f60	0.0059622973
216	0x3ea4115c	0.32044494
217	0x3cd3b1e3	0.025841659
218	0xbc51f38d	-0.012814415
219	0xbc095daa	-0.008384148
220	0xbbab850a	-0.0052343654
221	0xbb35c5d7	-0.002773633
222	0x3dcc98ba	0.09990068
223	0xbd75c88e	-0.060005717
224	0xbd9afce8	-0.07567769
225	0xbc5c6900	-0.013452768
226	0x3e45df65	0.193235
227	0x3c025eb0	0.007957146
228	0x3c032016	0.008003255
229	0x3c5773f7	0.013150207
230	0xbd47f319	-0.04881582
231	0x3ee38466	0.4443695
232	0x3dfcbcd5	0.12340704
233	0x3b0e6b30	0.002173137
234	0xba8d4447	-0.0010777795
235	0x3e2a16a6	0.16610202
236	0xbc6ddbfc	-0.01451778
237	0xbd356b3c	-0.04429172
238	0xbcf55a8b	-0.0299504
239	0x3bf40c9d	0.0074477927
240	0x3ce231a1	0.027611556
241	0xbe847a9c	-0.25874794
242	0x3c23c180	0.009994864
243	0x3ed0b754	0.40764868
244	0x3c1d61ec	0.009605866
245	0x3dbceeee	0.0922526
246	0x3e32f8d2	0.1747773
247	0x3bf8e6f3	0.0075958907
248	0xbc20e9f5	-0.009821405
249	0x3b690510	0.0035555996
250	0xbbe91db0	-0.0071141347
251	0xbc197e69	-0.009368517
252	0xbd9140b8	-0.07092422
253	0xbd661167	-0.05616894
254	0x3c123b93	0.008925336
255	0xbd97e0b8	-0.074159086

layers.2.bias f4 [30]
0	0xbd70692c	-0.05869405
1	0x3d592dfa	0.053022362
2	0xbecad61c	-0.39616477
3	0xbf6b0348	-0.9180188
4	0xbd9a3c4d	-0.07531033
5	0xbe7b8a75	-0.24564536
6	0xbde5d485	-0.112221755
7	0x3f029b88	0.5101857
8	0x3cb45063	0.022010988
9	0x3eb79ccb	0.3586181
10	0x3eb26739	0.34844378
11	0xbec0b785	-0.37640014
12	0xbdebf492	-0.115212575
13	0xbe8edcc2	-0.279028
14	0x3d3a7bf2	0.04552836
15	0x3db58e0d	0.08864985
16	0xbeab5d2e	-0.33469528
17	0x3d6ec9d6	0.058297954
18	0xbf3d8bc0	-0.74041367
19	0x3c4be561	0.012444825
20	0xbbcd588a	-0.006266658
21	0x3e2c2f5a	0.16814938
22	0xbdb46367	-0.08808022
23	0x3d8c2d20	0.068445444
24	0x3ed21ff0	0.4103999
25	0x3cfbfe5e	0.03076094
26	0x3e1afb47	0.15134917
27	0x3e71c9cc	0.23612136
28	0x3f391d16	0.72310007
29	0x3e9d2dd5	0.3069903

layers.4.weight f4 [30, 30]
0	0x3d89ebf7	0.0673446
1	0xbe24309e	-0.16034171
2	0x3ec8100b	0.3907474
3	0x3ec8daec	0.39229524
4	0xbd88b196	-0.06674497
5	0xbdc96e67	-0.09835511
6	0x3cbaaea4	0.022788353
7	0x3e765e46	0.240594
8	0x3c44a199	0.0120014185
9	0x3ce7e586	0.028307687
10	0xbdd06c7f	-0.10176944
11	0x3f0af87d	0.54285413
12	0x3dd1e02b	0.10247835
13	0x3ed30eaf	0.4122214
14	0xbd4fa625	-0.050695557
15	0xbe1b9cff	-0.15196608
16	0xbb50638f	-0.0031797623
17	0xbe3329cb	-0.17496412
18	0x3e5f2af9	0.21793737
19	0x3e039d0c	0.12852877
20	0x3e5ed739	0.21761788
21	0xbe46af16	-0.19402727
22	0xbd3e4a31	-0.046457473
23	0xbe2aba9f	-0.16672753
24	0x3dbc9dd9	0.092097946
25	0xbe3c837e	-0.18409535
26	0xbeaeac3a	-0.34115773
27	0xbe6bce2c	-0.23027867
28	0xbdaf0113	-0.08545127
29	0xbde50d24	-0.11184147
30	0x3d8024c3	0.06257012
31	0xbd005905	-0.031334896
32	0x3da45c21	0.08025385
33	0x3e4bb5be	0.19893548
34	0x3e2d1033	0.16900711
35	0x3dd480d2	0.10376133
36	0x3dfc665a	0.123242095
37	0xbc888df4	-0.016669251
38	0xbde5e57f	-0.112254135
39	0xbe66654c	-0.22499579
40	0xbe0feca3	-0.14055113
41	0x3e7e2f18	0.24822652
42	0xbd4b6b6d	-0.049662996
43	0x3dd025f0	0.10163486
44	0xbd33c715	-0.04389103
45	0x3b449cd4	0.0030000703
46	0x3d8a59b0	0.06755388
47	0xbe2f8a03	-0.17142491
48	0x3e64f51a	0.22359124
49	0x3dd2839b	0.10279008
50	0x3d7a8c9a	0.061169244
51	0x3c93308c	0.017967485
52	0x3d4bd8c7	0.04976728
53	0x3e2ae4e5	0.16688879
54	0xbe75ba48	-0.23996842
55	0x3db2d021	0.08731104
56	0xbdf34fde	-0.11880468
57	0xbe187a53	-0.14890413
58	0x3cefa07b	0.029251328
59	0xbd0de6b2	-0.034643836
60	0x3d33d704	0.043906227
61	0xbe02f025	-0.1278692
62	0xbe05dea6	-0.13073215
63	0x3dadbce4	0.08483294
64	0xbdcdb78a	-0.10044773
65	0xbd82ee7d	-0.06393144
66	0x3d99b868	0.07505876
67	0xbe23519a	-0.15949097
68	0x3ca84c55	0.02054421
69	0xbce7228d	-0.028214717
70	0xbd044041	-0.03228784
71	0xbe0d3d97	-0.13793026
72	0x3c42ed14	0.011897344
73	0xbc9172b0	-0.017754883
74	0xbe0c8913	-0.13724165
75	0xbdb9e9e6	-0.09077816
76	0xbbc71042	-0.006074936
77	0xbdc3245c	-0.095284194
78	0x3e10dc94	0.14146644
79	0xbe5d5142	-0.21613029
80	0xbdee659c	-0.11640474
81	0xbb930b4c	-0.0044874307
82	0x3dbdbe5f	0.09264826
83	0x3e035133	0.12823944
84	0xbddedcfc	-0.10881993
85	0x3b9a0c0c	0.004701143
86	0xbd366b8e	-0.044536166
87	0x3d5a78c7	0.05333784
88	0x3e2d62fb	0.1693229
89	0xbe633d00	-0.22191238
90	0xbc81896b	-0.015812596
91	0x3da865d1	0.08222545
92	0xbd5fde4f	-0.05465537
93	0x3aee2a2e	0.001817053
94	0x3df0ea2c	0.11763415
95	0xbe0cb383	-0.13740353
96	0x3d18028e	0.03711181
97	0xbe224265	-0.1584564
98	0x3c817142	0.015801076
99	0xbde64a26	-0.112446114
100	0x3cef2cea	0.029196221
101	0xbdf3c34d	-0.11902485
102	0xbdc79a21	-0.09746195
103	0x3c618265	0.013763999
104	0x3dfc7dd0	0.12328684
105	0xbe069575	-0.13142951
106	0xbd396302	-0.045260437
107	0x3d7eb504	0.06218435
108	0x3e0ab1eb	0.13544433
109	0x3ca7bb4e	0.020475056
110	0xbe5b1d64	-0.2139793
111	0x3c74f4c0	0.014950931
112	0xbd746efe	-0.059676163
113	0x3e09b8e6	0.1344944
114	0x3d5d5367	0.054034617
115	0xbbc7b05c	-0.0060940217
116	0xbcc0af9f	-0.023521243
117	0xbd04d9ea	-0.03243438
118	0xbe34e74b	-0.17666356
119	0xbe15274b	-0.1456577
120	0xbc08af2c	-0.0083425455
121	0x3e27184d	0.16317864
122	0xbe98d65b	-0.2985104
123	0xbe36d09f	-0.1785302
124	0xbdc891eb	-0.09793457
125	0xbcc7a4eb	-0.024370631
126	0x3d81db5f	0.0634067
127	0xbcf69ba9	-0.030103521
128	0x3d92ce67	0.071682744
129	0x3c5b038f	0.013367548
130	0x3df34ab9	0.118794866
131	0xbd96ee58	-0.07369679
132	0x3de9400a	0.113891676
133	0xbea63b44	-0.3246709
134	0xbd95cdd9	-0.07314653
135	0xbe0d6ea4	-0.13811737
136	0xbd03e06d	-0.03219645
137	0x3db1dae6	0.0868433
138	0x3e07b954	0.13254291
139	0xbdd7c9f3	-0.10536566
140	0x3d8721e3	0.0659826
141	0x3db7975c	0.089644164
142	0x3da8a59d	0.08234713
143	0x3e463585	0.19356354
144	0xbd1e7873	-0.038689088
145	0xbda9a01d	-0.08282492
146	0x3e4f902a	0.20269838
147	0x3d671486	0.056416057
148	0x3e678a0b	0.22611253
149	0xbcc81b74	-0.024427153
150	0xbd3ea4a8	-0.046543747
151	0xbcaeba02	-0.02132893
152	0x3e71c48c	0.23610133
153	0xbde2871e	-0.11060928
154	0xbcc9fff1	-0.024658175
155	0xbe006889	-0.12539877
156	0xbdda8cd3	-0.10671391
157	0x3e3be379	0.18348493
158	0xbe83d8db	-0.25751385
159	0xbe5436ae	-0.20723984
160	0xbe280760	-0.16409063
161	0xbd49815d	-0.049195636
162	0xba9a18b8	-0.0011756634
163	0xbdbef829	-0.093246765
164	0xbdff4b16	-0.124654934
165	0xbcd3602d	-0.025802696
166	0x3c01afd0	0.007915452
167	0xbb386b97	-0.00281403
168	0xbdb0792c	-0.08616862
169	0xbd881678	-0.066449106
170	0x3e2e8026	0.17041072
171	0xbce8f93c	-0.028439157
172	0xbe094691	-0.13405825
173	0x3d774bab	0.060374897
174	0x3cfbaee4	0.030723043
175	0x3bc1b160	0.0059110373
176	0xbdfb3c72	-0.122673884
177	0xbda589f7	-0.08082955
178	0x3d62b657	0.055349674
179	0x3d259175	0.04042192
180	0x3d02acde	0.03190314
181	0x3e2e0b66	0.16996536
182	0xbdb92c8f	-0.09041702
183	0xbdefb591	-0.11704553
184	0x3d3156bf	0.04329562
185	0xbe3ee616	-0.18642458
186	0x3d48032b	0.048831146
187	0x3c9b9c3b	0.018995395
188	0x3de7431c	0.11292097
189	0xbdc88cdb	-0.09792491
190	0xbdda19c8	-0.10649449
191	0x3ca50377	0.020143254
192	0xbd056555	-0.03256734
193	0xbe762152	-0.24036148
194	0xbd19fd2d	-0.037594963
195	0xbc7d8adb	-0.015475
196	0xbe650b75	-0.22367652
197	0xbd9dda7b	-0.077076875
198	0x3e4e0968	0.20120776
199	0xbcfd3375	-0.030908326
200	0x3dc053a1	0.09390951
201	0x3e123703	0.14278798
202	0x3c81463a	0.015780557
203	0xbe113a29	-0.14182343
204	0x3a7882aa	0.00094799197
205	0x3d903e31	0.07043112
206	0x3e0f1fcd	0.13976975
207	0xbe45c439	-0.19313134
208	0x3e1f0fca	0.15533367
209	0x3e4307c4	0.19045931
210	0xbe31efba	-0.17376605
211	0xbd1d959d	-0.03847276
212	0x3e0ce487	0.13759051
213	0xbd025850	-0.031822503
214	0x3d64d630	0.055868328
215	0x3cb8a430	0.022539228
216	0x3e24a676	0.16079125
217	0x3e2e46d1	0.17019202
218	0x3d247c3c	0.04015754
219	0xbbe96812	-0.007123002
220	0x3c9d2b92	0.019185815
221	0x3e842649	0.2581046
222	0xbe5807f7	-0.21096788
223	0xbdf4914e	-0.11941777
224	0xbd34b73e	-0.044120066
225	0xbc0533b7	-0.008130006
226	0x3ddb65c6	0.10712771
227	0xbc6f1636	-0.014592698
228	0x3de9b89a	0.11412163
229	0x3dc72bca	0.09725149
230	0x3c4cf413	0.012509364
231	0x39d7bef5	0.0004115027
232	0xbd044a14	-0.03229721
233	0x3d6aa69a	0.05728779
234	0x3e0a0735	0.13479312
235	0xbe14ee34	-0.14543992
236	0x3cef87b4	0.029239513
237	0x3ddb52cb	0.10709151
238	0xbe3bbd0f	-0.18333839
239	0xbcfc71b3	-0.030815935
240	0x3de89e36	0.11358301
241	0xbc312919	-0.010813021
242	0xbd5c1fa8	-0.053741127
243	0xbdf9aef3	-0.12191572
244	0xbe02e8e6	-0.12784156
245	0xbd813a47	-0.06309944
246	0x3d8a6ebf	0.067594044
247	0xbc0091f1	-0.007847295
248	0x3de7c7d2	0.113174096
249	0xbde9d035	-0.114166655
250	0x3b24db92	0.0025155288
251	0xbdac09de	-0.084003195
252	0x3dafebdc	0.085899085
253	0x3db71a5f	0.08940577
254	0x3d0928b5	0.033486087
255	0xbc7815a7	-0.015141881

layers.4.bias f4 [30]
0	0xbf204e32	-0.62619317
1	0xbe3dd81f	-0.18539475
2	0x3beb7a23	0.0071861907
3	0xbc1d87a5	-0.00961486
4	0xbd3a10e8	-0.04542628
5	0x3cac311c	0.02101951
6	0x3e8ba882	0.27277
7	0xbe03b3bf	-0.12861536
8	0xbe0490b8	-0.12945831
9	0x3e0d2c90	0.1378653
10	0x3ea3a0e5	0.3195869
11	0xbe80e59b	-0.25175175
12	0xbe5e1721	-0.2168851
13	0x3ec152c4	0.37758458
14	0xbe1409bc	-0.14456838
15	0xbd66feaf	-0.05639523
16	0xbeb8f6d4	-0.36125815
17	0x3ea77ed1	0.3271394
18	0xbf3765bd	-0.71639615
19	0xbeb7ab7c	-0.3587302
20	0xbeaa1557	-0.33219406
21	0x3e239708	0.15975583
22	0x3ea3bf16	0.31981725
23	0xbeb74b47	-0.3579962
24	0xbbe7ad12	-0.007070192
25	0xbe95e279	-0.29274347
26	0x3e4b92f3	0.19880275
27	0x3d29bab7	0.04143783
28	0x3cba8255	0.022767225
29	0xbdc4de2f	-0.09612691

layers.6.weight f4 [30, 30]
0	0xbe4f04cb	-0.20216672
1	0xbe1ce778	-0.15322673
2	0x3cc8622b	0.024460873
3	0x3c9a5477	0.018839104
4	0x3e03cd0e	0.12871191
5	0x3cadcb31	0.021215053
6	0x3e180cb9	0.14848603
7	0xbe1018e6	-0.14071998
8	0x3d899322	0.067175165
9	0x3e06bd27	0.13158093
10	0xbe2dd96f	-0.16977476
11	0xbc934830	-0.017978758
12	0x3c365648	0.0111289695
13	0x3c8d297a	0.017231692
14	0xbd94cc6a	-0.072655514
15	0x3da10786	0.07862763
16	0xbd2e34f4	-0.04253097
17	0x3db30bc3	0.08742478
18	0xbd5019b0	-0.050805748
19	0x3d11df4d	0.035613347
20	0x3db9e716	0.09077279
21	0xbb47ad18	-0.0030468162
22	0x3d9d7793	0.076888226
23	0x3dd61017	0.10452288
24	0x3e07477f	0.13210867
25	0xbdf78160	-0.12085223
26	0x3cef9da1	0.029249968
27	0x3c7dd1ae	0.015491886
28	0xbe1ca26f	-0.15296338
29	0x3d861df9	0.065486856
30	0xbe0684bd	-0.13136573
31	0x3d17d8d4	0.037072018
32	0xbdd9cea2	-0.10635115
33	0x3dc5cb84	0.09657958
34	0x3e022d37	0.1271256
35	0xbd85cb7f	-0.065329544
36	0x3c9be727	0.01903112
37	0x3df629fe	0.12019728
38	0xbe1e9c84	-0.15489393
39	0xbe28ed6d	-0.16496821
40	0xbd3fc48b	-0.046818297
41	0xbe5849fe	-0.21121976
42	0x3c9f5e18	0.019454047
43	0xbdab26db	-0.083570205
44	0x3dcccaf0	0.09999645
45	0xbcc5e02d	-0.024154747
46	0x3e5e3d5b	0.21703093
47	0xbe0da20f	-0.13831352
48	0xbd147b39	-0.036250327
49	0x3dd5fce9	0.104486294
50	0xbd18024d	-0.03711157
51	0x3e20fe67	0.15722047
52	0xbda8de90	-0.082455754
53	0xbd215238	-0.03938505
54	0xbc37cfbf	-0.011218964
55	0x3df7e8b5	0.12104932
56	0x3d8a4b77	0.06752675
57	0xbdc5bf41	-0.096556194
58	0x3dc44d65	0.09585074
59	0xbd9a2105	-0.07525829
60	0x3d7329d0	0.059366047
61	0x3e75f3e3	0.24018817
62	0x3dd0cc54	0.101952225
63	0x3c54f58f	0.012997999
64	0x3daa3530	0.08310926
65	0x3d7839c1	0.060601953
66	0x3d339647	0.043844488
67	0xbcecd7e1	-0.028911533
68	0xbdc2d43b	-0.09513136
69	0xbd0c0bd0	-0.034190953
70	0xbe654343	-0.2238894
71	0x3e5ff41e	0.21870467
72	0x3db70665	0.089367665
73	0xbe5de04a	-0.2166759
74	0x3c342989	0.010996231
75	0x3d8a5ca8	0.06755954
76	0x3e361099	0.17779769
77	0x3e15513c	0.1458177
78	0xbe47cb6c	-0.19511193
79	0x3e60dc89	0.21959127
80	0x3d9d50da	0.07681437
81	0xbd04a82e	-0.03238695
82	0xbd7aeb27	-0.061259415
83	0x3aff7cdf	0.001949217
84	0xbce80ac3	-0.028325444
85	0x3e46da75	0.19419272
86	0xbe48d7ed	-0.19613619
87	0xbd7c6721	-0.06162179
88	0xbe1130d8	-0.14178789
89	0xbaabd56a	-0.0013109867
90	0x3d05cb61	0.03266466
91	0x3dfeecc9	0.12447507
92	0xbe0b5d11	-0.13609721
93	0x3e018e80	0.12652016
94	0x3e153fb5	0.14575084
95	0xbd9b3fb8	-0.07580513
96	0x3ce998e7	0.028515292
97	0xbdc40c87	-0.09572702
98	0x3c0b9f92	0.008521931
99	0xbdedb8e7	-0.11607533
100	0xbd1d288b	-0.038368743
101	0xbdec331e	-0.11533187
102	0xbde24b25	-0.11049489
103	0x3e06168c	0.13094538
104	0x3cc1322b	0.023583492
105	0x3c1c6405	0.009545331
106	0xbd2cfb35	-0.042231757
107	0x3de3c422	0.11121394
108	0xbda57595	-0.080790676
109	0xbda4df64	-0.08050421
110	0xbe1b98f6	-0.15195069
111	0xbe0553d2	-0.13020256
112	0x3e375877	0.1790484
113	0xbe142105	-0.14465721
114	0x3c64df75	0.013969292
115	0xbd35cf4e	-0.044387154
116	0x3db789bb	0.08961817
117	0x3dade7a3	0.08491447
118	0xbe284ca5	-0.16435488
119	0x3e261f5c	0.162229
120	0xbe68bb0a	-0.227276
121	0x3bf51462	0.0074792365
122	0xbd16bfe1	-0.036804084
123	0xbdc154e8	-0.09440023
124	0x3e19ed07	0.15031825
125	0x3e356472	0.17714098
126	0xbb984926	-0.004647392
127	0xbdb6fa86	-0.08934502
128	0x3e14b108	0.14520657
129	0x3dab25df	0.08356833
130	0xbc9d56d7	-0.019206448
131	0xbd451abc	-0.0481212
132	0x3c9019a3	0.01759035
133	0x3e09e937	0.1346787
134	0xbb801fbf	-0.0039100344
135	0xbd5ede61	-0.054411296
136	0xbe6e1212	-0.23249081
137	0x3c9118f1	0.017712088
138	0x3dba410d	0.09094439
139	0xbd4534e3	-0.04814614
140	0xbd2a0c7a	-0.041515805
141	0x3deed225	0.11661176
142	0xbd537f02	-0.051634796
143	0xbd94480b	-0.072403036
144	0xbd451875	-0.048119027
145	0x3d0112f6	0.031512223
146	0x3e7d3a96	0.2472938
147	0x3dedc634	0.1161007
148	0x3d9d1cc4	0.07671502
149	0xbe07ccfb	-0.13261788
150	0xbeb7b187	-0.3587763
151	0xbd598529	-0.053105507
152	0xbe22b4b9	-0.15889253
153	0x3d86dd36	0.065851614
154	0xbc008aa3	-0.007845554
155	0x3e1de5b6	0.15419659
156	0x3dca4440	0.09876299
157	0xbdb7f457	-0.08982151
158	0x3e487cb6	0.19578823
159	0x3e31fcd8	0.17381608
160	0xbe2ff638	-0.17183769
161	0x3e6bff85	0.23046692
162	0xbe77ae1b	-0.2418751
163	0xbe30dc9e	-0.17271659
164	0xbec0c2a5	-0.37648502
165	0x3c081c51	0.008307532
166	0xbe51af86	-0.20477113
167	0x3eae6bd8	0.34066653
168	0xbe84312a	-0.2581876
169	0xbdcca007	-0.0999146
170	0x3e939abb	0.28828987
171	0x3e214fc9	0.15753092
172	0x3e7eaffd	0.24871822
173	0x3ca7e599	0.020495223
174	0x3e06684f	0.13125728
175	0xbe6d678f	-0.23184036
176	0x3e028686	0.12746629
177	0xbe81cc82	-0.2535134
178	0xbdf3ad1f	-0.118982546
179	0xbd08ed4b	-0.033429425
180	0x3ed2ad48	0.41147828
181	0x3d0c2e0b	0.034223597
182	0xbe2884b8	-0.16456878
183	0x3c3fc10c	0.011703741
184	0xbec3f6ef	-0.38274333
185	0x3b37a15e	0.0028019766
186	0xbd9b7ec9	-0.07592542
187	0x3d19146c	0.03737299
188	0xbd666f37	-0.056258406
189	0x3d838d8c	0.06423482
190	0xbdde5fe5	-0.10858134
191	0x3daa90e4	0.08328417
192	0x3e82719c	0.25477302
193	0x3c60377d	0.013685104
194	0x3dac4f23	0.08413532
195	0x3df8bb81	0.121451385
196	0x3ec1ea5e	0.3787412
197	0xbe9b557b	-0.30338654
198	0x3d149502	0.036274917
199	0x3eac90a5	0.33704105
200	0x3d31d7aa	0.043418564
201	0xbd7548ef	-0.059884008
202	0xbe146f2c	-0.14495534
203	0xbdd02ca8	-0.101647675
204	0xbe504c1f	-0.20341538
205	0x3eb0c23b	0.34523186
206	0x3c215dd5	0.009849031
207	0x3db8df2e	0.09026943
208	0x3e24cecc	0.16094512
209	0x3cbc3dad	0.022978628
210	0xbee0f5a3	-0.43937406
211	0xbdc1d0d2	-0.094636574
212	0xbc39ecef	-0.011347993
213	0x3d7f27eb	0.062293928
214	0x3dd6b3b6	0.10483496
215	0x3da8e3a6	0.082465455
216	0x3e0fe4cc	0.14052123
217	0xbdf9eda8	-0.122035325
218	0x3d1e3e90	0.038633883
219	0xbd81d3bf	-0.063392155
220	0x3d5b1030	0.053482234
221	0xbec5c586	-0.3862726
222	0x3d10fbb3	0.03539629
223	0x3daa6cf6	0.08321564
224	0xbe8901f7	-0.26759312
225	0x3dae1b4d	0.08501301
226	0xbecd190c	-0.40058172
227	0x3e6be15c	0.23035187
228	0xbe611695	-0.2198127
229	0xbeb61bc7	-0.35568067
230	0x3aec4fe6	0.0018029183
231	0x3dced23a	0.10098691
232	0x3e2c2dd8	0.16814363
233	0xbd080683	-0.033209335
234	0x3e3f03d8	0.1865381
235	0xbd6dea08	-0.058084518
236	0x3e7ceede	0.24700496
237	0xbe45573e	-0.19271562
238	0x3bc47e8c	0.005996531
239	0xbe0594a2	-0.1304498
240	0x3e2de4f2	0.16981867
241	0xbe19ff31	-0.15038754
242	0x3cbefe74	0.023314692
243	0x3c9f5ab7	0.019452436
244	0x3d97871c	0.07398817
245	0xbe18bc9c	-0.14915699
246	0x3e46f248	0.1942836
247	0xbdf014af	-0.11722695
248	0x3e641415	0.22273286
249	0xbdb368e6	-0.08760242
250	0xbda0b17c	-0.078463525
251	0xba8a7859	-0.0010564431
252	0xbc0928e7	-0.008371568
253	0x3bbbe540	0.005734116
254	0xbe57c447	-0.21070968
255	0x3dfdd806	0.12394719

layers.6.bias f4 [30]
0	0x3a50a217	0.00079587236
1	0xbc46cb7f	-0.012133478
2	0x3ae73690	0.0017640162
3	0xbd431a7c	-0.04763268
4	0x3dcb7cbe	0.09935902
5	0x3eb3c051	0.35107663
6	0xbe4ebfb4	-0.20190316
7	0x3ec852db	0.39125714
8	0x3d3ab1c7	0.045579698
9	0xbdde8794	-0.10865703
10	0x3db81f51	0.08990348
11	0x3dcc9de5	0.099910535
12	0xbdb7c924	-0.089739114
13	0x3d885360	0.066565275
14	0xbebeeaa2	-0.37288386
15	0x3ddd1a10	0.10795987
16	0x3c6fa07a	0.014625663
17	0x3e2ba862	0.16763452
18	0x3e28eaf9	0.16495885
19	0xbdd182d6	-0.10230033
20	0x3dc8bd40	0.098017216
21	0xbdc64367	-0.09680825
22	0x3d7009e5	0.058603186
23	0x3dedd658	0.116131485
24	0x3d6175b5	0.055043895
25	0xbe7ba711	-0.2457545
26	0x3d24c7c5	0.040229578
27	0xbe3a1902	-0.18173602
28	0x3cad66d0	0.021167189
29	0xbd2a333c	-0.041552767

layers.8.weight f4 [3, 30]
0	0xbd05f62b	-0.032705467
1	0xbe2a4e6e	-0.16631481
2	0x3d477f33	0.04870529
3	0x3ddd5f1a	0.10809155
4	0x3d70b25b	0.058763843
5	0x3eeac52b	0.45853552
6	0xbf00633c	-0.5015142
7	0x3f0f69f5	0.5602105
8	0xbe4240a9	-0.18969978
9	0xbe85e465	-0.26150814
10	0xbd473ff3	-0.04864497
11	0x3e09682f	0.13418649
12	0x3d807136	0.06271593
13	0xbd9891c5	-0.07449678
14	0x3e5162f1	0.204479
15	0xbdca1223	-0.098667406
16	0xbde93b03	-0.11388209
17	0x3d4cc76b	0.049994867
18	0x3e6cb151	0.23114516
19	0xbd9df049	-0.077118464
20	0xbd635ac1	-0.05550647
21	0xbdfa4a89	-0.12221248
22	0x3df8af83	0.12142851
23	0xbd5d4881	-0.054024223
24	0xbce41b2f	-0.027844993
25	0x3e5358f1	0.20639397
26	0xbe3d71b0	-0.185004
27	0x3e219ce0	0.157825
28	0x3e1c5a12	0.15268734
29	0x3e2735e4	0.16329151
30	0x3c7af79c	0.015317824
31	0x3d9ad069	0.07559282
32	0x3e43f99a	0.19138184
33	0x3e3209a4	0.1738649
34	0xbba3cbc8	-0.004998658
35	0xbd69bca1	-0.057064656
36	0x3d9a39b6	0.07530539
37	0x3ec10b3b	0.3770388
38	0xbe2b2987	-0.1671506
39	0x3e81d7f6	0.25360078
40	0xbd4bc846	-0.049751543
41	0x3df0c9ea	0.11757262
42	0x3e21262f	0.15737222
43	0x3d90fbe8	0.07079297
44	0x3efce042	0.49389845
45	0xbd623c5e	-0.055233352
46	0x3e6da094	0.23205787
47	0xbe0b3823	-0.13595633
48	0x3e875543	0.26432237
49	0xbe62af0c	-0.22137088
50	0x3e9c7b25	0.30562702
51	0x3d0bc769	0.03412572
52	0x3e6b4083	0.22973828
53	0xbe8cab41	-0.27474406
54	0xbe410c35	-0.18852313
55	0x3e613553	0.21992998
56	0xbd3c382e	-0.045952015
57	0xbec5b4ad	-0.38614407
58	0x3e3b5fa3	0.18298201
59	0xbe248e4b	-0.16069905
60	0xbcb5314b	-0.022118231
61	0x3b753d39	0.0037420525
62	0xbd3990ca	-0.045304097
63	0x3deb9f9f	0.11505055
64	0x3e0492f3	0.12946682
65	0xbe9b4804	-0.3032838
66	0xbd3f1d40	-0.046658754
67	0x3d399e09	0.04531673
68	0xbe4e3cff	-0.20140456
69	0x3d59dc84	0.053188816
70	0x3d8b31d9	0.06796617
71	0xbe00bb50	-0.12571454
72	0xbd9161f1	-0.07098759
73	0xba0a8135	-0.00052835356
74	0xbe941aa0	-0.28926563
75	0xbdab1c01	-0.08354951
76	0xbd953478	-0.07285398
77	0xbe37afde	-0.17938182
78	0x3dd2b218	0.10287875
79	0x3e1da554	0.15395099
80	0x3df51746	0.1196733
81	0xbdad8ca6	-0.08474092
82	0xbdb4265c	-0.08796379
83	0xbd8c9fe5	-0.06866435
84	0x3b3e3c7c	0.002902775
85	0x3eea4d9d	0.4576234
86	0xbdc06469	-0.09394152
87	0xbd34546d	-0.044025827
88	0xbdb8c17b	-0.090212785
89	0xbda1c52c	-0.07898936

layers.8.bias f4 [3]
0	0xbe2bca56	-0.16776404
1	0x3e8a917d	0.27064124
2	0xbcb5da51	-0.022198828
