data/model2_5l_30h_200e_0.005d.pt (torch, 15583 bytes, 10 tensors)

layers.0.weight f4 [30, 3]
000000 d6 21 cb 3d 2a d9 c6 3c b7 96 01 bf bc 33 a4 be
       0.09918563 0.024273474 -0.506206 -0.3207072
000010 3b 5b 80 3d a4 76 2d 3e f2 e6 0c bd ed bf f8 3d
       0.06267401 0.16939789 -0.034399934 0.12145982
000020 6a 01 0c b8 50 67 56 3e 35 df 57 bd cc 87 2d be
       -3.3379918e-05 0.20937848 -0.0527031 -0.16946334
000030 92 f9 37 be 4e 23 15 be 87 04 80 be c7 6f 32 be
       -0.17966297 -0.14564249 -0.25003454 -0.17425452
000040 86 dc 4c 3e 6a 75 ad 3e 18 86 59 be 43 69 f4 bd
       0.20005998 0.33878642 -0.21242559 -0.119341396
000050 d0 8c 2d 3e f7 90 56 3e 14 33 af bb 38 be d3 3e
       0.16948247 0.20953737 -0.005346665 0.41356063
000060 f8 12 79 bd f6 66 7f 3d e6 93 d6 3e 9b 79 37 be
       -0.060809106 0.06235405 0.41909713 -0.17917483
000070 1e 95 19 be 97 38 7f be 7c 1e 05 bd 9e 2c 82 3e
       -0.1499829 -0.24923931 -0.032499775 0.25424665
000080 0b e2 00 bf 42 bc cf bc 03 13 89 be a2 bd 17 bf
       -0.50344914 -0.025358323 -0.26772317 -0.5927373
000090 c1 4b c5 be 1e e4 4f 3e aa 8e ad 3e 97 f7 e2 3e
       -0.38534358 0.20301864 0.33897907 0.4432952
0000a0 92 a3 65 3e 82 8b ad be f5 65 6e 3e 91 1d 1f be
       0.22425678 -0.338955 0.23281081 -0.15538622
0000b0 02 bf ad be 5d 56 b9 be a2 21 d9 3d 90 90 ad 3e
       -0.3393479 -0.36198702 0.10602118 0.33899355
0000c0 7d c3 c6 be cf 0d 6b 3d f4 8c ad 3e 96 10 1b 3e
       -0.3882102 0.057386216 0.338966 0.15143046
0000d0 0b b3 ee 3d 93 50 c8 3d e4 a0 09 bd 41 33 72 bd
       0.116552435 0.09780993 -0.033600703 -0.05913091
0000e0 7f 7f 2e 3e 44 b1 14 be b4 71 fa bd a0 8b b0 be
       0.17040823 -0.14520746 -0.122287184 -0.34481525
0000f0 6e 6a a8 3e e6 dc e2 3b 61 87 ad be b9 ec 0e bc
       0.328937 0.006923306 -0.33892348 -0.008723431
000100 03 7f 05 3e 2b 9c 60 b7 c6 b8 7d be 14 05 f9 3d
       0.13036732 -1.3387801e-05 -0.24777517 0.12159172
000110 ec c8 ad 3e 01 ed 16 3e 6e 55 bf bd ef 84 2d be
       0.33942354 0.14738847 -0.09342466 -0.16945241
000120 78 cd 12 3e c5 7a 86 3e 65 3c 23 3f 0c b9 10 3f
       0.14336193 0.2626554 0.6376403 0.5653236
000130 59 b6 69 bd bb 20 02 bf b1 8e 52 3d 76 a2 20 be
       -0.057058666 -0.5083119 0.051405612 -0.15686974
000140 8d 28 16 bf 88 6c 08 3f f1 5c 24 3e 8a 27 02 bf
       -0.58655626 0.53290606 0.1605108 -0.5084158
000150 2d 4d 28 3d 33 f2 48 3c a2 cf 14 38 35 92 56 be
       0.041089226 0.012264776 3.5479323e-05 -0.20954211
000160 07 40 10 3c 0f 6e d3 be
       0.008804328 -0.41294906

layers.0.bias f4 [30]
000000 cf b5 38 3e 6a 4b ea bd a8 13 37 3d 9d 77 03 3f
       0.18038104 -0.11440165 0.04469648 0.5135439
000010 5b bc 43 bf a1 b7 e1 3e 49 44 6f 3c a4 9a e0 3d
       -0.7645928 0.4408541 0.014603683 0.10966995
000020 f6 78 bf be ed cf 8c be d4 14 f3 3e 2e 1a 83 3e
       -0.37396973 -0.27502385 0.47476828 0.2560591
000030 d8 4f f7 be b6 75 31 bf d5 f7 66 bf e6 b4 c7 3d
       -0.48303103 -0.6932024 -0.9022191 0.097513005
000040 d7 ed 19 be 40 0f 83 be 52 df 18 3e a2 69 f7 3b
       -0.15032135 -0.25597572 0.1492894 0.007550434
000050 bd 7c 0a bf b7 a3 a7 3e 68 87 f6 be b1 ee f2 3e
       -0.54096586 0.32742092 -0.48150182 0.47447732
000060 8c 2f e6 3e fc a2 5c bf e4 bc 16 be c2 1c 50 be
       0.4495815 -0.86186194 -0.14720494 -0.2032347
000070 66 4f 94 bd d7 03 e6 bd
       -0.072417066 -0.11231201

layers.2.weight f4 [30, 30]
000000 6b d9 08 bc 4a 52 3e be 5d 47 c3 3e da 6e 0d be
       -0.008352618 -0.18586078 0.38140383 -0.13811818
000010 91 21 c3 bd 1a 75 98 3d 31 c4 07 3d e6 8e a2 3c
       -0.09527887 0.0744421 0.033146087 0.01984353
000020 a4 45 ee bb 1b 96 a5 bd 25 f5 52 3c 97 2d 86 bc
       -0.0072714854 -0.08085271 0.01287583 -0.01637916
000030 5a d0 b6 3c 4c 2b 92 bb 2a 6e 91 3e 64 e6 2a bd
       0.022316147 -0.004460728 0.2840436 -0.041723624
000040 53 2e 42 3e e2 aa 99 3c e9 10 c7 3c c3 d9 7f ba
       0.18962984 0.018758241 0.024300056 -0.0009759927
000050 ea 5d ad 3e 0e f1 0f 3f e5 33 6a be 5d 32 5d 3d
       0.33860713 0.56227195 -0.22871359 0.05400311
000060 42 2f 90 bb df 71 75 bd 3a 0e b1 3b c9 f2 59 bd
       -0.004400165 -0.05992305 0.0054033073 -0.053210054
000070 bb 25 0e bf ee 61 c9 3c a8 63 a2 3b 38 5c fb bd
       -0.5552632 0.02458283 0.0049557276 -0.12273449
000080 b9 81 9f be 94 67 cc 3d d2 38 19 bd ff 6d d1 3c
       -0.31153658 0.099806935 -0.037407704 0.025565146
000090 4a ae 20 3e 36 05 65 3d 33 0d 20 3b 6d b4 f3 bc
       0.15691486 0.055913173 0.002442193 -0.02974912
0000a0 5c df 65 ba 17 ce af bc da 79 20 be be a5 a7 bc
       -0.000876894 -0.021460576 -0.15671483 -0.020464774
0000b0 96 68 54 3d ba 68 dd 3b d4 d7 ac 3c 30 d9 ce 3b
       0.051857553 0.006756869 0.021099009 0.006312512
0000c0 8f 4b 95 3d c9 f0 73 3b da 89 3a 3d 7b fd ad be
       0.07289802 0.0037222377 0.04554162 -0.33982453
0000d0 df 50 65 bd 27 d1 08 3e 2f 2e 92 39 6c f7 96 3c
       -0.055985328 0.13361035 0.000278817 0.018428527
0000e0 e8 5e be 3c a0 e2 91 bd 24 9e 01 3f ff 48 4b 3d
       0.023238614 -0.071233034 0.5063193 0.04963016
0000f0 25 8f 32 3c 47 d3 fe bd 82 4b 69 3f a7 83 b0 bd
       0.010898386 -0.12442642 0.9113084 -0.08618861
000100 2d f7 15 3d 83 e3 56 3d 43 54 38 3d 11 a2 62 3c
       0.03661268 0.052463066 0.045002233 0.013832585
000110 1b f2 8a 3b 5e 0e 12 3d 36 3a 3e 3a c2 c1 ae ba
       0.004240287 0.035658233 0.0007256599 -0.0013332891
000120 5e 8d ed bd 2d a0 4a bd 68 03 1a 3d 6a 4d ff bd
       -0.11599229 -0.04946916 0.037600905 -0.124659374
000130 52 8e c1 bd 73 71 a9 3b fb c4 bc 3d be c2 f7 bb
       -0.094509736 0.005170995 0.092172585 -0.007561057
000140 01 7c 19 bd 2d 56 08 3f b6 16 9b 3c 13 4f 71 3e
       -0.037471775 0.53256494 0.018931728 0.2356532
000150 9f 22 31 bb eb 6c 4c 3b 52 1b 17 3b 81 f4 c3 3c
       -0.0027028692 0.003119285 0.0023057056 0.0239203
000160 a8 d3 82 ba f1 83 20 3c 5c a3 1a 3b 87 63 d2 3d
       -0.0009981291 0.009797082 0.0023595905 0.102728896
000170 66 cc 24 3f a1 e3 e9 bd 7b e4 77 3c a4 fa fd bc
       0.6437439 -0.1142037 0.015130158 -0.031003304
000180 65 ae fa bd 39 94 42 bc 9d 07 d3 3b 6b 9e a3 3c
       -0.12240294 -0.011876159 0.0064401166 0.019973
000190 ad cf 33 ba c3 91 c4 3b b2 2a 29 bd b7 70 8e 3d
       -0.0006859254 0.0059988215 -0.041300483 0.069550924
0001a0 53 ce 84 bd c3 0a 60 bc fd 18 44 be 4d 5c fd 3a
       -0.06484666 -0.013674441 -0.19150157 0.0019329876
0001b0 53 15 4a bd bf bd 7c bb d1 64 d9 3d 3c 38 ef 3e
       -0.049336743 -0.0038565246 0.10614932 0.4672259
0001c0 10 ca 09 bc 52 0b 5b bd 93 9c 9a 3a a7 55 bc 3c
       -0.008409992 -0.053477593 0.001179593 0.022990061
0001d0 94 1d d9 3a 9f fb 3d 3d 91 3e aa 3e 75 6d 10 bc
       0.0016564601 0.046382543 0.3325086 -0.008815159
0001e0 5f 21 00 bc c7 1c 79 3d 87 21 4a be ea ba ad be
       -0.007820456 0.06081846 -0.19739352 -0.33931667
0001f0 65 42 0f 3d bb df 72 3d 7a d2 d5 3e c8 30 18 3d
       0.034975428 0.059295397 0.41762143 0.037155896
000200 61 ae 40 3b bd e5 87 3c 67 e0 18 bc 81 5e ce 3a
       0.0029400813 0.01658904 -0.009330845 0.0015744717
000210 dd 2f 9e bb 68 69 9a bd 53 58 3f bd dc 65 02 3d
       -0.004827483 -0.07539636 -0.046715092 0.031835422
000220 d9 aa ab 3d e4 83 aa bb 60 ba 9b 3d d7 e4 d5 bb
       0.08382196 -0.005203711 0.076039076 -0.006527524
000230 a0 3c 28 3d 54 ae 8b 3d ae 30 06 3c 13 13 15 3e
       0.04107344 0.0682036 0.008190317 0.14558057
000240 a7 ab 78 3a 44 e2 c9 bd 68 f9 59 bb 5a d8 93 bd
       0.00094860274 -0.0985761 -0.003326023 -0.07219
000250 cd c6 c6 3e 62 5e d2 3c 8e 5b 0e bc e8 78 c0 bd
       0.38823548 0.02567977 -0.0086888205 -0.09398061
000260 0b 8a 9a be 30 0d 1d bc 04 8d 07 3a 0f 52 ce 3c
       -0.30183443 -0.009585664 0.0005170854 0.025185613
000270 ba 21 ac 3e 7a 47 6f bc 0c 4f a3 bb 90 1c 46 3b
       0.3361948 -0.014604444 -0.0049837884 0.0030229427
000280 e5 30 b1 3b a6 1f f2 3b da 1f 35 be cd 05 d1 3d
       0.00540744 0.0073890267 -0.17687932 0.102061845
000290 47 db 41 3e 15 df bd ba 2a e3 a6 3c 2d 53 ac bb
       0.18931304 -0.0014486039 0.020371992 -0.0052589388
0002a0 e1 ca f7 ba 9f 56 a6 bb c5 09 8c bd 80 8f a5 3d
       -0.0018905067 -0.005076244 -0.06837801 0.08084011
0002b0 1c 52 ef bb 6d ab 4d bd bb 96 38 bb 66 86 f1 bc
       -0.0073034894 -0.050212312 -0.0028166014 -0.029483031
0002c0 05 dc 60 bb f1 70 08 bd 72 e2 5c 3d 30 dc 88 bc
       -0.003431083 -0.033310834 0.053926893 -0.016706556
0002d0 fb 22 2e bc 44 12 22 be 64 b1 fd bc d4 d3 b9 be
       -0.010628457 -0.1582728 -0.030968376 -0.36294425
0002e0 c7 78 96 3c ab 63 f0 bc 69 da 8f 3d 2b 59 20 3d
       0.018368138 -0.0293444 0.0702408 0.039147537
0002f0 27 f3 78 3c 92 fd 42 3c 77 c3 56 3c 85 26 d4 3b
       0.015194691 0.011901276 0.013108126 0.0064743184
000300 9e 1b 4b 3d 6f 7d 1f bd 7a be 6e 3d 20 0b 30 3d
       0.049586885 -0.038937982 0.05828712 0.04297936
000310 c9 60 48 bd 96 58 81 bc 1d 4a 4b 3c 17 ef 82 bc
       -0.048920427 -0.015789311 0.012407807 -0.015983148
000320 d1 74 1b bd e7 4c d6 be a0 41 22 bd b0 1a c6 bd
       -0.0379532 -0.41855547 -0.039613366 -0.09673059
000330 11 fe c3 3b 00 20 fe bc 0b a6 50 3a 45 5e a9 bc
       0.005981215 -0.031021118 0.00079593126 -0.020674834
000340 7c 2c a9 be 04 ea c2 3c 44 d0 a6 ba 30 ee 18 bd
       -0.3304175 0.023793228 -0.0012726863 -0.03733653
000350 f5 8d 77 3f 79 9d 38 3f 19 db 6d bc f2 02 09 3c
       0.96700984 0.72115284 -0.014517569 0.008362519
000360 fb 02 9a 3e ce b2 a3 3c 0c 30 bf 3a e7 1d 62 bc
       0.300804 0.019982722 0.0014586463 -0.013801075
000370 e0 ad 9a b9 14 a0 32 3a 36 75 7d bc d9 2c f8 bc
       -0.00029502716 0.00068140146 -0.01546984 -0.030294823
000380 2d cc 28 be 68 a3 83 3b fb 17 b2 3a 07 1d ec bb
       -0.16484137 0.0040172823 0.0013587469 -0.0072056088
000390 32 23 b8 3c 95 03 e0 3b b6 b9 04 be 02 52 1e 3f
       0.02247772 0.0068363645 -0.12961468 0.61843884
0003a0 57 e7 3a 3e 17 f6 10 be 4d 22 27 3b fb ca 94 3d
       0.18252312 -0.14156376 0.0025502623 0.07265278
0003b0 e5 6d 27 3b a4 92 d9 bc 45 3a 47 3d 04 57 38 3c
       0.002554768 -0.026559182 0.048639555 0.011251215
0003c0 cf 9c 0b bb 15 a9 1f be 06 39 96 3e c9 fb 6d 3e
       -0.0021303182 -0.15591843 0.2934038 0.2324058
0003d0 77 64 c8 3c 8c 9e 0b 3c 6f c3 f1 3c df 91 36 3d
       0.024461968 0.008521687 0.029512135 0.044572707
0003e0 5b ba 55 3c 3d c7 38 3c 4f 9c 81 bc ff 18 85 3b
       0.013044919 0.011277971 -0.015821604 0.0040618177
0003f0 0a 97 e1 3d 67 8d 61 3d 84 87 1b bd d8 f3 b5 3c
       0.110151365 0.055066492 -0.037971035 0.022211

layers.2.bias f4 [30]
000000 40 08 4a bd 2d 24 5e 3e 2c 91 23 bf 6c ca 94 bf
       -0.049324274 0.21693487 -0.6389339 -1.1624274
000010 06 b7 58 be 2b f2 e2 be df f8 3f be bf 90 29 3f
       -0.21163568 -0.44325384 -0.1874728 0.6623649
000020 33 a5 64 3d e4 12 12 3f 37 a5 05 3f 6f 7a d9 be
       0.05582161 0.57060075 0.5220522 -0.42476222
000030 88 aa 5e be f0 f1 ec be 2e 28 27 bd 09 11 03 3e
       -0.2174474 -0.46278334 -0.040809803 0.12799467
000040 99 b9 c2 be 49 29 cd 3c df 38 4f bf d9 6a 1e 3d
       -0.38032225 0.0250441 -0.80946153 0.038676117
000050 f0 5e a9 bc d0 7a c0 3e 07 4e 77 be 86 91 75 bd
       -0.020675153 0.37593699 -0.24150859 -0.059953235
000060 ad 81 59 3f 32 ca 91 3d 41 5c 84 3e 2b 4f a6 3e
       0.84963495 0.07118644 0.25851634 0.32482275
000070 9a f0 7e 3f c6 ad 18 3f
       0.9958588 0.5964016

layers.4.weight f4 [30, 30]
000000 63 4b 8f 3e 9f 97 86 be c6 a9 20 3f df 47 b2 3e
       0.27987203 -0.26287553 0.62759054 0.34820458
000010 62 13 42 be 89 21 99 be e9 30 24 be 85 e1 86 3e
       -0.18952706 -0.29908398 -0.16034283 0.26343933
000020 0d 75 99 bd 16 8a 58 bd 3b cd e3 bd a1 17 45 3f
       -0.07493029 -0.052866064 -0.11123129 0.7698918
000030 9c cf ed 3d fb 5f 01 3f f7 62 9e bd dd 04 12 be
       0.11611864 0.5053708 -0.0773372 -0.14259668
000040 77 85 27 3e 05 d9 b1 bd 30 66 2e 3e 24 24 62 3e
       0.16359507 -0.08683971 0.17031169 0.22084099
000050 eb 8d dc 3d 01 3e 7d be 9b 75 21 bc ce fb b4 be
       0.10769256 -0.24730684 -0.0098546995 -0.35348362
000060 ce 8a a6 3d fb dd fb bd c4 3f 76 be 80 42 c2 be
       0.08131944 -0.12298199 -0.24047762 -0.3794136
000070 5e ea 23 bd 56 d3 72 bd 63 be 26 bc ab c5 90 3c
       -0.04001843 -0.059283577 -0.010177228 0.01767238
000080 81 84 ca 3d 0c 98 c7 3e b2 32 20 3e 51 2a 02 3e
       0.09888554 0.3898319 0.15644339 0.12711455
000090 bc 4f aa bd 18 09 f1 bd 26 d2 72 be fc 30 08 be
       -0.083159894 -0.117693126 -0.23712978 -0.13299936
0000a0 ca 22 d7 bd f1 de f9 3e 4a 26 30 be 84 bc 57 bc
       -0.10504682 0.48802903 -0.17202106 -0.013167504
0000b0 59 67 b9 bd 56 32 d2 3d b6 98 55 bd d3 1b d6 bd
       -0.09052915 0.10263507 -0.05214759 -0.10454526
0000c0 59 82 80 3e d7 96 25 3e d3 c1 40 be 03 f2 8f 3c
       0.25099447 0.16170822 -0.18823938 0.017571455
0000d0 a6 44 7b 3d 44 5e a0 3d 19 ca 95 be 5f d0 0c 3d
       0.061344765 0.0783048 -0.2925575 0.034378406
0000e0 66 fa 71 be 78 ee 03 be 63 f4 d0 3c 25 af 4f be
       -0.23630676 -0.12883937 0.025507158 -0.20281656
0000f0 11 d4 3c 3d 2d 3f 5d be fb 83 90 be 22 98 27 bd
       0.04610068 -0.21606131 -0.28225693 -0.04091657
000100 9c b1 bc bd f4 81 19 be 03 1a ed 3d a7 39 71 be
       -0.09213564 -0.1499098 0.11577227 -0.23557149
000110 90 4d c4 3d 57 da 98 bc 4b 9f 44 bd 50 97 ce bd
       0.095851064 -0.0186588 -0.048003476 -0.10087454
000120 92 62 83 bd 72 b1 f1 3d 31 96 7b bd 77 66 53 bd
       -0.06415285 0.11801423 -0.06142253 -0.05161139
000130 be 7c f6 3b 18 97 d6 3a 8c cc bb 3e 1d 8b 9e be
       0.0075221946 0.0016371934 0.36679494 -0.3096551
000140 98 1f e8 3c 86 5e d0 bd b6 d8 c2 3d d8 af 04 3e
       0.028335378 -0.10174279 0.095139906 0.12957704
000150 6c 76 69 be ad 6c c9 3d ed a2 03 3e 57 32 c5 bd
       -0.2279908 0.098351814 0.1285512 -0.09628742
000160 60 d3 ad 3d 1f bd 12 bd 7a 67 dc bc c2 ac 2a 3e
       0.08487582 -0.03582489 -0.02690481 0.16667464
000170 ba d3 0d be 00 b8 2b bb 3a 99 b4 3d 7d 69 a1 bd
       -0.13850299 -0.0026202202 0.08818288 -0.078814484
000180 5d d3 1d 3d b9 6b 68 be 4e 7c 0b bd ef 85 1b be
       0.03853165 -0.22697343 -0.034054093 -0.1518781
000190 00 9d ad 3d 62 d7 32 be 09 60 17 be 5f b5 e7 bd
       0.08477211 -0.17464975 -0.14782728 -0.11313891
0001a0 fc 50 8e 3d 8b 37 6e bd 15 df 61 bd 23 55 b4 3d
       0.0694904 -0.05815844 -0.05514439 0.08805301
0001b0 54 ff 27 3e 5c de 20 bd 15 ff 3e be 20 f4 18 3e
       0.16405994 -0.03927456 -0.18651994 0.14936876
0001c0 a9 9c c6 bd e4 cf 4a 3e 2c d2 b1 3d 1d d4 91 3d
       -0.09697849 0.19805866 0.08682665 0.071205355
0001d0 e7 9f 06 3e 23 7a 85 bc c6 51 67 be a2 2e 3f be
       0.13146935 -0.01629359 -0.22589788 -0.18670133
0001e0 ea c8 86 bd 7a 01 3a 3e 1b 5c b9 be ad 68 91 be
       -0.0658129 0.18164626 -0.36203083 -0.28400174
0001f0 91 a8 be bd 71 15 3e be 71 e2 ca 3d c7 31 95 bd
       -0.09309495 -0.18562867 0.099064715 -0.07284885
000200 27 29 17 3e 5d 2e c3 3d 01 ac 84 3e ae 6b 00 be
       0.14761792 0.095303275 0.2591248 -0.12541077
000210 c8 fa 0a be aa b5 dd be ae 76 28 be 41 52 c6 bd
       -0.13572228 -0.4330266 -0.16451523 -0.096836574
000220 c4 31 38 3d c1 3b 19 3e e1 36 96 3d e1 ff 3c be
       0.044969335 0.149642 0.07334686 -0.18456985
000230 d1 66 c0 3d 10 b2 0e bd d4 f8 ea 3d 97 5b 1d 3e
       0.09394611 -0.034837782 0.114732414 0.1536697
000240 c4 14 2a bd 29 36 1b be e6 f7 8d 3e 32 62 47 3e
       -0.04152371 -0.15157379 0.27728194 0.19471052
000250 49 fc 05 3e f8 be a0 bc 36 1f e4 bc 37 e0 37 bb
       0.1308452 -0.019622311 -0.027846914 -0.0028057226
000260 c5 d3 69 3e ff 84 02 be 60 94 b6 bd 94 90 2f be
       0.2283469 -0.12746046 -0.08915019 -0.17144996
000270 f7 fb 01 be cc 97 ae 3e 97 cf 27 be 96 19 59 be
       -0.12693773 0.34100187 -0.16387783 -0.21201167
000280 6a e9 2f be cf 97 8e 3c 9a db bb bb c1 a2 14 be
       -0.17178884 0.017406372 -0.0057329657 -0.1451521
000290 17 91 05 be 81 53 76 3d 0e 04 b5 bd 9a 96 ce bd
       -0.13043629 0.06013823 -0.08838664 -0.10087319
0002a0 24 1a 4c be 39 2a 50 bd 60 5e 7e 3d 26 eb a6 3c
       -0.19931847 -0.050821517 0.06210172 0.0203758
0002b0 90 bf d5 bd ab cb 37 3e 23 e1 1a 3e 19 a7 bc bd
       -0.10436928 0.17948787 0.15124945 -0.09211559
0002c0 0b 68 40 be 52 8b c2 bd c4 d5 09 3e a6 a3 ae bd
       -0.18789689 -0.094992295 0.13460451 -0.08527307
0002d0 0e 1c 0a bc b9 c1 be 3d 88 01 67 be fb f2 2a be
       -0.00842954 0.093142934 -0.22559178 -0.16694252
0002e0 2d 8a 0d be dd 54 61 be 23 b7 d4 3d ab 91 3a bc
       -0.13822241 -0.22005029 0.10386493 -0.011387269
0002f0 13 53 49 3e 27 cb e5 bc 45 64 03 3c 8b 93 fb bd
       0.19660597 -0.028050972 0.008019512 -0.12284001
000300 ce 3a fa bd 6b ed 9c be 80 d2 36 bd d5 dc 1c bd
       -0.12218247 -0.30649886 -0.044634342 -0.03829654
000310 ba 84 a6 be fd 60 dd bd d4 e4 4c 3e de 62 f4 bd
       -0.32523137 -0.10809515 0.20009166 -0.1193292
000320 e0 ca 4e 3d b2 1c 79 3d c1 d1 76 ba 72 9b 71 be
       0.050486445 0.06081838 -0.0009415411 -0.23594454
000330 ab fb 1f 3e ab f6 98 3c ea 05 5a 3e e7 b6 c0 bd
       0.15623347 0.018672308 0.21291319 -0.09409886
000340 f5 a1 c8 3c 53 d3 2f 3e 77 83 fc bd 9b c9 86 bd
       0.02449129 0.17170458 -0.123297624 -0.06581422
000350 4b 17 a1 3e 9d 0b 06 bd 1a 2b 20 be 4d 1a 19 be
       0.31463084 -0.03272592 -0.15641442 -0.14951439
000360 bb f6 65 3e b5 fd 0f 3e bd a5 de 3d a4 cc be bd
       0.22457401 0.14061625 0.10871456 -0.09316376
000370 c4 c9 68 3e 92 69 b0 3e de e1 66 be b1 12 88 be
       0.22733217 0.34455544 -0.22547099 -0.2657676
000380 72 b9 ef bd 3b 7f 81 bb 22 49 a9 3d e1 52 e2 bc
       -0.11705293 -0.0039519346 0.08265902 -0.02762741
000390 23 0a 46 3e a3 03 0d 3e d4 81 60 3d 41 3a 59 bc
       0.19339804 0.13770919 0.054811314 -0.013258518
0003a0 e1 da 6f 3d 40 3d 1c bd 82 ec c6 3d d3 c2 9a be
       0.05855835 -0.03814435 0.09713079 -0.30226764
0003b0 c8 ad 79 3d 34 a3 3f 3e c4 8f 9f be 38 8e fe 3c
       0.060956746 0.18714601 -0.31164372 0.031073675
0003c0 fe 44 4f 3d 0d 10 86 be 11 ee 9d 3c 45 30 fb bd
       0.050602905 -0.2618412 0.019278558 -0.12265066
0003d0 49 b7 18 be 42 f1 65 bd 85 09 c9 3c d0 95 17 bd
       -0.14913668 -0.056138285 0.024540672 -0.037008107
0003e0 c8 01 18 3e 65 9a 82 3d 66 bd 2c 3d 03 2a d8 bd
       0.1484443 0.06377105 0.042172812 -0.10554888
0003f0 e5 8f 83 3d e4 ef 04 3e 2a ff 9a bd 0e 9c 2e be
       0.0642393 0.12982136 -0.075682 -0.17051718

layers.4.bias f4 [30]
000000 9b 7e 25 bf 23 4a 9b be 93 90 ee 3c a8 3c c7 3b
       -0.6464631 -0.3033 0.029121673 0.006080229
000010 de db 3f bd 9f 4f b4 3d 5a 93 ad 3e b2 28 1f be
       -0.04684054 0.08804249 0.33901483 -0.15542868
000020 88 4a b5 be ea 6b 56 3e 0b cb e6 3e bc 70 c2 be
       -0.35408425 0.20939603 0.45076784 -0.37976635
000030 ed 42 a1 be 06 51 06 3f df 6d 3c bd 99 51 55 bd
       -0.31496373 0.5246738 -0.04600322 -0.05207977
000040 3e c4 a1 be 60 78 0c 3f 2c 45 6e bf e0 92 de be
       -0.31595033 0.5487118 -0.930743 -0.43471432
000050 d6 e9 f4 be 3a c3 9b 3e dd bd cb 3e 0f b0 15 bf
       -0.47834653 0.30422384 0.39793292 -0.5847177
000060 ca f2 87 3c 8c 33 bb be 69 77 51 3e ac a1 19 3b
       0.016595263 -0.36562765 0.20455708 0.0023442311
000070 8e eb 45 3b 5f 9a dc bd
       0.0030200216 -0.107716314

layers.6.weight f4 [30, 30]
000000 ce 90 20 be 9c fd 17 be 6e c0 80 3c bc e3 29 bc
       -0.15680239 -0.14842838 0.015716758 -0.0103692375
000010 61 7c 2f 3e 26 89 cb 3c e8 5d 21 3e 2d de d7 bd
       0.1713729 0.02484567 0.15758479 -0.105404235
000020 11 14 03 3e e6 2d dc 3d 89 d9 33 be 14 40 35 3d
       0.12800623 0.10750942 -0.17563452 0.044250563
000030 b8 a6 b6 3c 7f 0b 97 3c 91 1d 94 bd 41 b5 81 3d
       0.022296295 0.018438099 -0.07232202 0.063333996
000040 70 35 4f bd 87 70 e1 3d 95 08 8f bd c5 07 30 3d
       -0.05058807 0.11007791 -0.06984059 0.04297616
000050 10 be 83 3d 67 06 53 3a 38 48 d2 3d 93 91 c3 3d
       0.06432736 0.0008049965 0.10267681 0.095492505
000060 24 4c 0a 3e ef 19 28 be 8f dd b7 3d 14 07 5e 3c
       0.13505608 -0.16416143 0.08977806 0.013551492
000070 29 cb 2c be 43 a4 09 3d 1a a8 c0 bd 5f ac 2b 3d
       -0.16874374 0.033603918 -0.09407063 0.041912433
000080 7e 57 c1 bd 43 1e 75 3c 28 fa 08 3e d0 33 fa bd
       -0.09440516 0.014960828 0.13376677 -0.12216914
000090 fd 12 0a 3d b0 cf 3c 3e 9e be 88 bd fe 51 1d be
       0.033709515 0.18438601 -0.06676982 -0.15363309
0000a0 46 a5 5f 3c 78 ef c4 bd 40 61 64 3c e3 64 7f bd
       0.013650244 -0.096159875 0.013939202 -0.062352072
0000b0 04 6e 2e 3e b4 51 34 3d fd cb 80 3e ea 24 17 be
       0.17034155 0.04402323 0.2515563 -0.14760175
0000c0 e4 25 17 3d cd 81 1a 3d d5 84 8e bd 48 1c fe 3d
       0.03690137 0.037721444 -0.069589294 0.12407738
0000d0 c2 9a 05 be cc 9c 2e bd 57 f6 8f 3c 5a 0f f0 3d
       -0.13047317 -0.042630002 0.017573519 0.11721678
0000e0 76 b3 19 3e cb 3b 9b 3d b9 74 4f 3e c2 4b 9f bd
       0.15009865 0.07579764 0.2025937 -0.077781215
0000f0 8b 89 8a 3d db ee c4 3e 6e d1 0d 3e cc 0a e6 3d
       0.067645155 0.38463482 0.13849422 0.11232528
000100 47 20 70 3d 85 17 af 3d 04 49 43 3c d7 c9 0e bd
       0.058624532 0.08549408 0.011919264 -0.03486046
000110 23 ce 35 be c7 da 2f 3d ac dc 95 be a9 77 b2 3e
       -0.17754416 0.04293325 -0.29269922 0.34856918
000120 b9 1f b8 3d 17 ac 88 be 7c 8a 1e 3d c8 bb 22 3d
       0.089904256 -0.26693794 0.038706288 0.039729863
000130 25 6f 87 3e 4f 65 83 3d 41 f2 6f be 0f db b9 3e
       0.26451984 0.064158075 -0.23432256 0.3629994
000140 d0 65 29 3e e6 2e da bd d3 b1 dc bd a1 3c a9 3d
       0.16542745 -0.106534764 -0.10776105 0.08263517
000150 04 d9 09 be 22 72 35 3e c6 1f 9e be 9e d6 0f be
       -0.13461691 0.1771932 -0.30883616 -0.14046714
000160 ed 02 f3 bd 29 0e 87 3d 4e 08 cd b9 39 9a 09 3e
       -0.118657924 0.06594498 -0.00039106834 0.13437738
000170 25 76 b5 bd 56 45 db 3d a7 46 3b 3e 5e 9f da bd
       -0.08860425 0.10706584 0.1828867 -0.10674928
000180 93 ea 9c 3d 49 42 2e bd ed 0c 7a 3d 30 16 39 be
       0.07661929 -0.042543683 0.061047483 -0.1807487
000190 cf a3 f0 bc 67 89 64 bd 3f fc 05 be d1 10 2c 3e
       -0.029374985 -0.0557951 -0.13084505 0.1680329
0001a0 dc 26 12 3e e6 d3 87 bc 8f 05 ec bd bb c8 bc 3d
       0.14272636 -0.016580533 -0.11524498 0.09217974
0001b0 57 0a 12 be bd 95 ae bd 9f 93 2b be aa 02 04 be
       -0.14261757 -0.08524654 -0.16755532 -0.12891641
0001c0 b7 f3 9b 3e c0 36 84 be 6a cb 5a 3c 3b 3f e9 bd
       0.30459377 -0.2582302 0.013354162 -0.113890134
0001d0 e1 20 0c 3e 2e 8b 0d 3e 6d 5a 00 be 71 ad 14 3e
       0.13684417 0.13822624 -0.12534495 0.14519288
0001e0 fa 45 a8 be eb c8 f5 3c 28 a1 ce 3c 3b 65 25 be
       -0.32865888 0.030003032 0.02522333 -0.16151898
0001f0 39 e1 79 3e 79 36 e0 3d 3e 39 7d 3d 9f 3d 6d bd
       0.24402322 0.1094789 0.06182217 -0.057920095
000200 f1 f4 4e 3e 17 fc 98 3d 3b 74 35 3d 21 8c fc bd
       0.20210625 0.07469957 0.0443003 -0.12331415
000210 3e ea 43 bd 69 1c 68 3e 04 fd 0e 3d 9d b5 52 3c
       -0.047830813 0.22667088 0.034909263 0.012860683
000220 ca fc c1 be 13 dd 88 3c f6 c4 27 3d 85 e6 1e be
       -0.37888175 0.016706979 0.04095932 -0.15517624
000230 af 46 b0 bd c1 00 59 3d 4a 6b 4a 3d 02 d3 35 be
       -0.08607232 0.052979235 0.049418725 -0.17756274
000240 aa 71 cf bd 48 78 84 3d 44 83 64 3e 8d e8 54 3e
       -0.101291016 0.06468254 0.22315699 0.20791836
000250 96 46 02 3e 6c 42 07 be c7 d6 95 be 89 34 93 3a
       0.12722239 -0.13208932 -0.29265425 0.0011230867
000260 95 11 f8 bd 85 72 8c 3d fc 16 58 bd d7 98 2d 3e
       -0.121127285 0.0685778 -0.052756295 0.16952835
000270 a8 f8 30 3e 9c cd 91 bc d4 b5 bd 3e ae fc 1a 3e
       0.17282355 -0.017798238 0.37052786 0.15135452
000280 5f 55 34 be c8 68 bc 3e 55 95 b8 be 0a 81 b5 be
       -0.17610691 0.36798692 -0.3605143 -0.35450011
000290 2d 70 fe be 60 db a5 3d 57 98 bb be 48 ab ed 3e
       -0.49694958 0.08098483 -0.36639664 0.4641974
0002a0 1a 80 af be 78 56 c9 bd 06 7a f4 3e 7c eb 46 3e
       -0.3427742 -0.09830946 0.47749346 0.19425768
0002b0 43 bf ba 3e 24 11 4b 3d a4 16 a3 3e 9d 19 a3 be
       0.36474046 0.049576893 0.3185321 -0.3185548
0002c0 9b b6 f6 3d 4b 4a c7 be c8 a6 8a bd ac ad 39 bd
       0.12046548 -0.3892387 -0.06770092 -0.045331642
0002d0 d8 18 c8 3e ea 21 d2 3d 1a df 44 be d7 69 bb 3c
       0.39081454 0.10260375 -0.19225731 0.022877617
0002e0 ac 63 ad be b2 3f dc 3c 36 ae 1d bd 76 6f 06 3d
       -0.33865106 0.026885841 -0.03849622 0.03282114
0002f0 78 ca c8 bd d1 33 22 3d a7 ef 1e 3c 71 7a 8a 3e
       -0.09804243 0.039600197 0.009700692 0.2704654
000300 0d 2d 34 3e bc b5 97 3d cf 76 83 3e 0b 7f b2 3d
       0.1759531 0.0740771 0.2567658 0.08715638
000310 96 3d 12 3f 18 d8 d8 be 1b 11 47 3e 27 83 a6 3e
       0.5712522 -0.42352366 0.19440119 0.32521936
000320 77 68 08 be d2 02 81 be 0b c2 c5 bd 45 12 17 be
       -0.133211 -0.25197464 -0.096561514 -0.14753063
000330 f4 38 58 be 2c 22 87 3e 03 c7 8b bd 05 22 3a 3d
       -0.21115476 0.2639326 -0.06825068 0.0454426
000340 4f d8 27 3e 37 a7 07 3c 63 15 d1 be c2 f7 ad 3d
       0.16391109 0.008279613 -0.4083663 0.08494522
000350 07 8f b9 bd b3 72 e9 bc 3c c3 25 3e ee 81 73 3e
       -0.090604834 -0.028497076 0.16187757 0.23780033
000360 63 20 96 3e 5d 0a 5a be b3 6b 39 3e 64 2c 52 be
       0.29321584 -0.21293016 0.1810749 -0.20524746
000370 df b3 b2 3d 98 f1 16 bf 5b 5a e1 bc c0 10 30 3d
       0.08725714 -0.5896239 -0.027508905 0.042984724
000380 db a5 ac bd d5 5a 1b 3d 41 8d b0 be c8 61 9b 3e
       -0.08430072 0.03792842 -0.34482768 0.3034804
000390 45 c2 92 be 92 e8 a7 be 62 a7 be bd 80 66 9c bc
       -0.2866384 -0.32794625 -0.093092695 -0.019091845
0003a0 1e ed 7c 3e 04 b8 95 3c b0 32 23 3e ce b3 d9 3a
       0.24699828 0.018276222 0.15937304 0.0016609372
0003b0 03 57 e1 3e 45 ae a4 be da cc 5d bd c5 20 35 be
       0.44011697 -0.32164207 -0.05415044 -0.17688282
0003c0 30 50 43 3e dd 3c 5c bd 94 1f d2 3d 75 ec b3 3c
       0.19073558 -0.05376898 0.10259929 0.021963337
0003d0 41 d2 50 3d 2d ea 45 be af d6 9d 3c e9 f6 ff bd
       0.050981764 -0.19327612 0.019267408 -0.12498266
0003e0 d9 f2 df 3e c3 12 37 bd 15 26 25 be 53 3d 1d 3e
       0.43739966 -0.044695627 -0.16127808 0.15355425
0003f0 f4 e2 00 39 15 e3 c4 bd 62 f5 34 be a9 e5 98 3d
       0.00012291578 -0.09613625 -0.17671731 0.07465679

layers.6.bias f4 [30]
000000 70 de 8f 3b 10 27 5f bc 31 ee af bd 66 1d 72 bd
       0.0043905303 -0.013620153 -0.08590353 -0.059110068
000010 6b 03 38 3e 43 80 cd 3e fb 25 5e be fc 4d e1 3e
       0.17970054 0.40136918 -0.21694176 0.4400481
000020 5c 6e e7 bd 97 a5 29 be 63 88 06 3e e3 fa e1 3c
       -0.11300346 -0.16567074 0.13137965 0.027585452
000030 e2 64 16 be f5 ff 00 3e a9 76 d1 be 24 55 f6 3d
       -0.14686921 0.1259764 -0.40910843 0.12027958
000040 a3 5b 7e 3d 42 11 31 3e c8 7a 9a 3d 4a c1 35 be
       0.06209911 0.1729174 0.0754295 -0.17749515
000050 3d 5c b3 bd 3a 08 28 bd ba 63 74 3c 46 0a fd 3d
       -0.087578274 -0.04102347 0.014916355 0.12355475
000060 e4 d3 cd 3d e9 e4 ad be 3c f4 26 3c ea 81 5b be
       0.100501806 -0.33963707 0.010190066 -0.21436277
000070 17 a3 26 bd 9c d6 82 bc
       -0.04068288 -0.015971474

layers.8.weight f4 [3, 30]
000000 42 4b 07 3d 9e 06 93 3b 78 e9 4b 3e f0 8c 98 3e
       0.033030756 0.004486873 0.1991328 0.29795027
000010 1e f4 1c bd 97 08 5f 3f 4c 68 57 bf d7 a0 2e 3f
       -0.038318746 0.8712248 -0.8414352 0.6821417
000020 eb ca 41 be 0c 91 f9 be bf fa 32 be b7 34 09 3e
       -0.18925063 -0.48743474 -0.17478465 0.13399015
000030 2c aa 1c 3d 36 26 7d be d6 c1 d9 3e e3 1e b8 be
       0.038248226 -0.24721608 0.42530698 -0.35961065
000040 63 e1 06 bd 04 62 85 3d c6 53 fd 3e 55 16 0f bd
       -0.03292979 0.065128356 0.49477977 -0.034933407
000050 64 a3 89 bd a0 e3 a2 be 99 9c 6b 3e e5 5a 8d bd
       -0.067206174 -0.3181429 0.23008956 -0.069021024
000060 33 10 ca bd e9 d5 15 3e 19 64 8c be 86 d8 f1 3e
       -0.09866371 0.14632381 -0.27420118 0.47235507
000070 c6 d4 33 3e 51 d5 2f 3e 87 b4 5d 3d 1e 03 73 bd
       0.17561635 0.17171218 0.054127242 -0.059329145
000080 5f ad f2 3e 69 48 c3 3d 4e d8 50 bc 80 46 b2 be
       0.47397897 0.095352955 -0.012746884 -0.34819412
000090 99 ca 71 3d 75 29 25 3f 3a 1f d0 be 8a 5c 71 3e
       0.059031103 0.64516383 -0.40648824 0.23570457
0000a0 a6 d8 d2 bd 24 e5 81 3d b5 8d c4 3e bc fe ac 3d
       -0.10295229 0.06342533 0.38389364 0.08447024
0000b0 62 f5 2a 3f d6 e1 3c 3c 86 25 8c 3e e7 6c 84 be
       0.66780674 0.011528453 0.27372378 -0.25864336
0000c0 62 4f 19 3e 34 61 4e be 12 23 aa 3e 1e a7 8f 3d
       0.14971688 -0.20154268 0.33229882 0.07014297
0000d0 a2 e4 c0 3d 55 a1 98 be 9d 81 64 be ee cc 05 bd
       0.09418608 -0.29810587 -0.22315069 -0.03266614
0000e0 cf aa f0 bd d8 7d 5a bf 2b bb 19 3e ae d8 9b be
       -0.11751329 -0.8534827 0.15012805 -0.3043875
0000f0 6f 07 84 bd a1 16 7d bc 6b 67 92 bd 08 cc 76 3d
       -0.0644673 -0.01544729 -0.07148632 0.060253173
000100 1e c7 b4 3e ec 18 a0 be 97 bb f6 3c 1a 4f 42 3e
       0.35308164 -0.31269014 0.030118747 0.18975487
000110 11 de af bd 61 f2 73 3d a7 22 b1 3d 7f a4 93 3c
       -0.08587278 0.059557322 0.086491875 0.018022774
000120 20 08 a4 bd 8c 1f a6 bd a0 c9 d6 be 27 e7 88 3d
       -0.08009362 -0.08111486 -0.41950703 0.06684714
000130 8e 2e 5e bd 98 70 c2 be 69 2d 18 be f5 9b 9c 3c
       -0.054243617 -0.37976527 -0.14861073 0.019117335
000140 b1 17 3f bb b8 1f 33 be 3d 9f 6a be 12 f0 9e 3c
       -0.0029158408 -0.17492568 -0.22912307 0.019401584
000150 d8 90 6f bd 98 44 2b 3f e4 3c 12 bd f2 97 8a 3d
       -0.058487743 0.6690154 -0.0357026 0.067672625
000160 21 f9 c7 3c a4 c1 c2 bd
       0.024410786 -0.0950959

layers.8.bias f4 [3]
000000 0b 87 b4 be 5b 78 af 3e 48 58 02 3e
       -0.3525928 0.3427151 0.12728989
